…
0.0625, n=8000, niters=300, nonormalize=False, norm=True, num_ref_points=128, old_split=1, quantization=0.016, rec_hidden=64, save=1, seed=0, split=0, std=0.01) 60267
The device being used here is:  cuda
4000
tensor(362.) tensor(82.) tensor(110.)
torch.Size([2560, 190, 83]) torch.Size([2560, 1]) torch.Size([640, 163, 83]) torch.Size([640, 1]) torch.Size([800, 203, 83]) torch.Size([800, 1])
Before loading parameters: 799 547 194
parameters: 799 547 194
enc_mtan_rnn(
  (att): multiTimeAttention(
    (linears): ModuleList(
      (0-1): 2 x Linear(in_features=8, out_features=8, bias=True)
      (2): Linear(in_features=82, out_features=4, bias=True)
    )
  )
  (gru_rnn): GRU(4, 4, batch_first=True, bidirectional=True)
  (hiddens_to_z0): Sequential(
    (0): Linear(in_features=8, out_features=3, bias=True)
    (1): ReLU()
    (2): Linear(in_features=3, out_features=6, bias=True)
  )
  (embedder1): mtan_time_embedder(
    (periodic): Linear(in_features=1, out_features=7, bias=True)
    (linear): Linear(in_features=1, out_features=1, bias=True)
  )
  (embedder2): mtan_time_embedder(
    (periodic): Linear(in_features=1, out_features=7, bias=True)
    (linear): Linear(in_features=1, out_features=1, bias=True)
  )
)
dec_mtan_rnn(
  (att): multiTimeAttention(
    (linears): ModuleList(
      (0-1): 2 x Linear(in_features=8, out_features=8, bias=True)
      (2): Linear(in_features=6, out_features=6, bias=True)
    )
  )
  (gru_rnn): GRU(3, 3, batch_first=True, bidirectional=True)
  (z0_to_obs): Sequential(
    (0): Linear(in_features=6, out_features=3, bias=True)
    (1): ReLU()
    (2): Linear(in_features=3, out_features=41, bias=True)
  )
  (embedder1): mtan_time_embedder(
    (periodic): Linear(in_features=1, out_features=7, bias=True)
    (linear): Linear(in_features=1, out_features=1, bias=True)
  )
  (embedder2): mtan_time_embedder(
    (periodic): Linear(in_features=1, out_features=7, bias=True)
    (linear): Linear(in_features=1, out_features=1, bias=True)
  )
)
create_classifier(
  (gru_rnn): reverseGru(3, 4, batch_first=True)
  (classifier): Sequential(
    (0): Linear(in_features=4, out_features=6, bias=True)
    (1): ReLU()
    (2): Linear(in_features=6, out_features=6, bias=True)
    (3): ReLU()
    (4): Linear(in_features=6, out_features=2, bias=True)
  )
)
weight_ih_l0 : torch.Size([9, 4])
weight_hh_l0 : torch.Size([9, 4])
bias_ih_l0 : torch.Size([9])
bias_hh_l0 : torch.Size([9])
weight_ih_l0_reverse : torch.Size([9, 4])
weight_hh_l0_reverse : torch.Size([9, 4])
bias_ih_l0_reverse : torch.Size([9])
bias_hh_l0_reverse : torch.Size([9])
weight_ih_l0 : torch.Size([6, 3])
weight_hh_l0 : torch.Size([6, 3])
bias_ih_l0 : torch.Size([6])
bias_hh_l0 : torch.Size([6])
weight_ih_l0_reverse : torch.Size([6, 3])
weight_hh_l0_reverse : torch.Size([6, 3])
bias_ih_l0_reverse : torch.Size([6])
bias_hh_l0_reverse : torch.Size([6])
Shape of normal gru is:  12
We have index size as:  4
Shape of hidden gru unit:  4
Index:  3
=========================================================
=========================================================
Pruning iteration is:  0
Encoder
enc_mtan_rnn(
  (att): multiTimeAttention(
    (linears): ModuleList(
      (0-1): 2 x Linear(in_features=8, out_features=8, bias=True)
      (2): Linear(in_features=82, out_features=4, bias=True)
    )
  )
  (gru_rnn): GRU(4, 3, batch_first=True, bidirectional=True)
  (hiddens_to_z0): Sequential(
    (0): Linear(in_features=6, out_features=2, bias=True)
    (1): ReLU()
    (2): Linear(in_features=2, out_features=6, bias=True)
  )
  (embedder1): mtan_time_embedder(
    (periodic): Linear(in_features=1, out_features=7, bias=True)
    (linear): Linear(in_features=1, out_features=1, bias=True)
  )
  (embedder2): mtan_time_embedder(
    (periodic): Linear(in_features=1, out_features=7, bias=True)
    (linear): Linear(in_features=1, out_features=1, bias=True)
  )
)
Decodder
dec_mtan_rnn(
  (att): multiTimeAttention(
    (linears): ModuleList(
      (0-1): 2 x Linear(in_features=8, out_features=8, bias=True)
      (2): Linear(in_features=6, out_features=6, bias=True)
    )
  )
  (gru_rnn): GRU(3, 2, batch_first=True, bidirectional=True)
  (z0_to_obs): Sequential(
    (0): Linear(in_features=6, out_features=2, bias=True)
    (1): ReLU()
    (2): Linear(in_features=2, out_features=41, bias=True)
  )
  (embedder1): mtan_time_embedder(
    (periodic): Linear(in_features=1, out_features=7, bias=True)
    (linear): Linear(in_features=1, out_features=1, bias=True)
  )
  (embedder2): mtan_time_embedder(
    (periodic): Linear(in_features=1, out_features=7, bias=True)
    (linear): Linear(in_features=1, out_features=1, bias=True)
  )
)
Classifier
create_classifier(
  (gru_rnn): reverseGru(3, 3, batch_first=True)
  (classifier): Sequential(
    (0): Linear(in_features=3, out_features=5, bias=True)
    (1): ReLU()
    (2): Linear(in_features=5, out_features=5, bias=True)
    (3): ReLU()
    (4): Linear(in_features=5, out_features=2, bias=True)
  )
)
parameters: 702 439 134
Pruning Iter: 1, Iter: 1, recon_loss: 1502.9732, ce_loss: 0.5541, acc: 0.8586, mse: 0.3038, val_loss: 0.5369, val_acc: 0.8719, val_auc: 0.5242, test_acc: 0.8625, test_auc: 0.5286
Pruning Iter: 1, Iter: 2, recon_loss: 1481.5480, ce_loss: 0.5412, acc: 0.8586, mse: 0.2995, val_loss: 0.5270, val_acc: 0.8719, val_auc: 0.5504, test_acc: 0.8625, test_auc: 0.5072
…
bias_ih_l0 : torch.Size([3])
bias_hh_l0 : torch.Size([3])
weight_ih_l0_reverse : torch.Size([3, 3])
weight_hh_l0_reverse : torch.Size([3, 2])
bias_ih_l0_reverse : torch.Size([3])
bias_hh_l0_reverse : torch.Size([3])
Shape of normal gru is:  9
We have index size as:  3
Shape of hidden gru unit:  3
Index:  2
=========================================================
=========================================================
Pruning iteration is:  1
Encoder
enc_mtan_rnn(
  (att): multiTimeAttention(
    (linears): ModuleList(
      (0-1): 2 x Linear(in_features=8, out_features=8, bias=True)
      (2): Linear(in_features=82, out_features=4, bias=True)
    )
  )
  (gru_rnn): GRU(4, 2, batch_first=True, bidirectional=True)
  (hiddens_to_z0): Sequential(
    (0): Linear(in_features=4, out_features=1, bias=True)
    (1): ReLU()
    (2): Linear(in_features=1, out_features=6, bias=True)
  )
  (embedder1): mtan_time_embedder(
    (periodic): Linear(in_features=1, out_features=7, bias=True)
    (linear): Linear(in_features=1, out_features=1, bias=True)
  )
  (embedder2): mtan_time_embedder(
    (periodic): Linear(in_features=1, out_features=7, bias=True)
    (linear): Linear(in_features=1, out_features=1, bias=True)
  )
)
Decodder
dec_mtan_rnn(
  (att): multiTimeAttention(
    (linears): ModuleList(
      (0-1): 2 x Linear(in_features=8, out_features=8, bias=True)
      (2): Linear(in_features=4, out_features=6, bias=True)
    )
  )
  (gru_rnn): GRU(3, 1, batch_first=True, bidirectional=True)
  (z0_to_obs): Sequential(
    (0): Linear(in_features=6, out_features=1, bias=True)
    (1): ReLU()
    (2): Linear(in_features=1, out_features=41, bias=True)
  )
  (embedder1): mtan_time_embedder(
    (periodic): Linear(in_features=1, out_features=7, bias=True)
    (linear): Linear(in_features=1, out_features=1, bias=True)
  )
  (embedder2): mtan_time_embedder(
    (periodic): Linear(in_features=1, out_features=7, bias=True)
    (linear): Linear(in_features=1, out_features=1, bias=True)
  )
)
Classifier
create_classifier(
  (gru_rnn): reverseGru(3, 2, batch_first=True)
  (classifier): Sequential(
    (0): Linear(in_features=2, out_features=4, bias=True)
    (1): ReLU()
    (2): Linear(in_features=4, out_features=4, bias=True)
    (3): ReLU()
    (4): Linear(in_features=4, out_features=2, bias=True)
  )
)
parameters: 621 331 84
Pruning Iter: 2, Iter: 1, recon_loss: 40.4924, ce_loss: 0.6961, acc: 0.4676, mse: 0.0087, val_loss: 0.6791, val_acc: 0.8250, val_auc: 0.3136, test_acc: 0.8187, test_auc: 0.2914
Pruning Iter: 2, Iter: 2, recon_loss: 40.4022, ce_loss: 0.6680, acc: 0.8527, mse: 0.0086, val_loss: 0.6540, val_acc: 0.8719, val_auc: 0.3751, test_acc: 0.8625, test_auc: 0.3575
…
bias_ih_l0 : torch.Size([3])
bias_hh_l0 : torch.Size([3])
weight_ih_l0_reverse : torch.Size([3, 4])
weight_hh_l0_reverse : torch.Size([3, 2])
bias_ih_l0_reverse : torch.Size([3])
bias_hh_l0_reverse : torch.Size([3])
Shape of normal gru is:  6
We have index size as:  2
Shape of hidden gru unit:  2
Index:  1
=========================================================
=========================================================
Pruning iteration is:  2
Encoder
enc_mtan_rnn(
  (att): multiTimeAttention(
    (linears): ModuleList(
      (0-1): 2 x Linear(in_features=8, out_features=8, bias=True)
      (2): Linear(in_features=82, out_features=4, bias=True)
    )
  )
  (gru_rnn): GRU(4, 1, batch_first=True, bidirectional=True)
  (hiddens_to_z0): Sequential(
    (0): Linear(in_features=2, out_features=50, bias=True)
    (1): ReLU()
    (2): Linear(in_features=1, out_features=6, bias=True)
  )
  (embedder1): mtan_time_embedder(
    (periodic): Linear(in_features=1, out_features=7, bias=True)
    (linear): Linear(in_features=1, out_features=1, bias=True)
  )
  (embedder2): mtan_time_embedder(
    (periodic): Linear(in_features=1, out_features=7, bias=True)
    (linear): Linear(in_features=1, out_features=1, bias=True)
  )
)
Decodder
dec_mtan_rnn(
  (att): multiTimeAttention(
    (linears): ModuleList(
      (0-1): 2 x Linear(in_features=8, out_features=8, bias=True)
      (2): Linear(in_features=2, out_features=6, bias=True)
    )
  )
  (gru_rnn): GRU(3, 1, batch_first=True, bidirectional=True)
  (z0_to_obs): Sequential(
    (0): Linear(in_features=6, out_features=1, bias=True)
    (1): ReLU()
    (2): Linear(in_features=1, out_features=41, bias=True)
  )
  (embedder1): mtan_time_embedder(
    (periodic): Linear(in_features=1, out_features=7, bias=True)
    (linear): Linear(in_features=1, out_features=1, bias=True)
  )
  (embedder2): mtan_time_embedder(
    (periodic): Linear(in_features=1, out_features=7, bias=True)
    (linear): Linear(in_features=1, out_features=1, bias=True)
  )
)
Classifier
create_classifier(
  (gru_rnn): reverseGru(3, 1, batch_first=True)
  (classifier): Sequential(
    (0): Linear(in_features=1, out_features=3, bias=True)
    (1): ReLU()
    (2): Linear(in_features=3, out_features=3, bias=True)
    (3): ReLU()
    (4): Linear(in_features=3, out_features=2, bias=True)
  )
)
parameters: 565 319 44
Pruning Iter: 3, Iter: 1, recon_loss: 38.8878, ce_loss: 0.4480, acc: 0.8586, mse: 0.0084, val_loss: 0.4237, val_acc: 0.8719, val_auc: 0.5459, test_acc: 0.8625, test_auc: 0.5349
Pruning Iter: 3, Iter: 2, recon_loss: 38.8841, ce_loss: 0.4343, acc: 0.8586, mse: 0.0084, val_loss: 0.4101, val_acc: 0.8719, val_auc: 0.5760, test_acc: 0.8625, test_auc: 0.5337
…
