cuda
starting main call
ResNet(
  (conv1): PAIModulePyThread(
    (layerArray): ModuleList(
      (0-3): 4 x PBSequential(
        (model): Sequential(
          (0): Conv2d(3, 64, kernel_size=(7, 7), stride=(2, 2), padding=(3, 3), bias=False)
          (1): BatchNorm2d(64, eps=1e-05, momentum=0.1, affine=True, track_running_stats=True)
        )
      )
    )
  )
  (relu): ReLU(inplace=True)
  (maxpool): MaxPool2d(kernel_size=3, stride=2, padding=1, dilation=1, ceil_mode=False)
  (layer1): Sequential(
    (0): PAIModulePyThread(
      (layerArray): ModuleList(
        (0-3): 4 x BasicBlock(
          (conv1): Conv2d(64, 8, kernel_size=(3, 3), stride=(1, 1), padding=(1, 1), bias=False)
          (bn1): BatchNorm2d(8, eps=1e-05, momentum=0.1, affine=True, track_running_stats=True)
          (relu): ReLU(inplace=True)
          (conv2): Conv2d(8, 8, kernel_size=(3, 3), stride=(1, 1), padding=(1, 1), bias=False)
          (bn2): BatchNorm2d(8, eps=1e-05, momentum=0.1, affine=True, track_running_stats=True)
          (downsample): Sequential(
            (0): Conv2d(64, 8, kernel_size=(1, 1), stride=(1, 1), bias=False)
            (1): BatchNorm2d(8, eps=1e-05, momentum=0.1, affine=True, track_running_stats=True)
          )
        )
      )
    )
    (1): PAIModulePyThread(
      (layerArray): ModuleList(
        (0-3): 4 x BasicBlock(
          (conv1): Conv2d(8, 8, kernel_size=(3, 3), stride=(1, 1), padding=(1, 1), bias=False)
          (bn1): BatchNorm2d(8, eps=1e-05, momentum=0.1, affine=True, track_running_stats=True)
          (relu): ReLU(inplace=True)
          (conv2): Conv2d(8, 8, kernel_size=(3, 3), stride=(1, 1), padding=(1, 1), bias=False)
          (bn2): BatchNorm2d(8, eps=1e-05, momentum=0.1, affine=True, track_running_stats=True)
        )
      )
    )
  )
  (layer2): Sequential(
    (0): PAIModulePyThread(
      (layerArray): ModuleList(
        (0-3): 4 x BasicBlock(
          (conv1): Conv2d(8, 16, kernel_size=(3, 3), stride=(2, 2), padding=(1, 1), bias=False)
          (bn1): BatchNorm2d(16, eps=1e-05, momentum=0.1, affine=True, track_running_stats=True)
          (relu): ReLU(inplace=True)
          (conv2): Conv2d(16, 16, kernel_size=(3, 3), stride=(1, 1), padding=(1, 1), bias=False)
          (bn2): BatchNorm2d(16, eps=1e-05, momentum=0.1, affine=True, track_running_stats=True)
          (downsample): Sequential(
            (0): Conv2d(8, 16, kernel_size=(1, 1), stride=(2, 2), bias=False)
            (1): BatchNorm2d(16, eps=1e-05, momentum=0.1, affine=True, track_running_stats=True)
          )
        )
      )
    )
    (1): PAIModulePyThread(
      (layerArray): ModuleList(
        (0-3): 4 x BasicBlock(
          (conv1): Conv2d(16, 16, kernel_size=(3, 3), stride=(1, 1), padding=(1, 1), bias=False)
          (bn1): BatchNorm2d(16, eps=1e-05, momentum=0.1, affine=True, track_running_stats=True)
          (relu): ReLU(inplace=True)
          (conv2): Conv2d(16, 16, kernel_size=(3, 3), stride=(1, 1), padding=(1, 1), bias=False)
          (bn2): BatchNorm2d(16, eps=1e-05, momentum=0.1, affine=True, track_running_stats=True)
        )
      )
    )
  )
  (layer3): Sequential(
    (0): PAIModulePyThread(
      (layerArray): ModuleList(
        (0-3): 4 x BasicBlock(
          (conv1): Conv2d(16, 32, kernel_size=(3, 3), stride=(2, 2), padding=(1, 1), bias=False)
          (bn1): BatchNorm2d(32, eps=1e-05, momentum=0.1, affine=True, track_running_stats=True)
          (relu): ReLU(inplace=True)
          (conv2): Conv2d(32, 32, kernel_size=(3, 3), stride=(1, 1), padding=(1, 1), bias=False)
          (bn2): BatchNorm2d(32, eps=1e-05, momentum=0.1, affine=True, track_running_stats=True)
          (downsample): Sequential(
            (0): Conv2d(16, 32, kernel_size=(1, 1), stride=(2, 2), bias=False)
            (1): BatchNorm2d(32, eps=1e-05, momentum=0.1, affine=True, track_running_stats=True)
          )
        )
      )
    )
    (1): PAIModulePyThread(
      (layerArray): ModuleList(
        (0-3): 4 x BasicBlock(
          (conv1): Conv2d(32, 32, kernel_size=(3, 3), stride=(1, 1), padding=(1, 1), bias=False)
          (bn1): BatchNorm2d(32, eps=1e-05, momentum=0.1, affine=True, track_running_stats=True)
          (relu): ReLU(inplace=True)
          (conv2): Conv2d(32, 32, kernel_size=(3, 3), stride=(1, 1), padding=(1, 1), bias=False)
          (bn2): BatchNorm2d(32, eps=1e-05, momentum=0.1, affine=True, track_running_stats=True)
        )
      )
    )
  )
  (layer4): Sequential(
    (0): PAIModulePyThread(
      (layerArray): ModuleList(
        (0-3): 4 x BasicBlock(
          (conv1): Conv2d(32, 64, kernel_size=(3, 3), stride=(2, 2), padding=(1, 1), bias=False)
          (bn1): BatchNorm2d(64, eps=1e-05, momentum=0.1, affine=True, track_running_stats=True)
          (relu): ReLU(inplace=True)
          (conv2): Conv2d(64, 64, kernel_size=(3, 3), stride=(1, 1), padding=(1, 1), bias=False)
          (bn2): BatchNorm2d(64, eps=1e-05, momentum=0.1, affine=True, track_running_stats=True)
          (downsample): Sequential(
            (0): Conv2d(32, 64, kernel_size=(1, 1), stride=(2, 2), bias=False)
            (1): BatchNorm2d(64, eps=1e-05, momentum=0.1, affine=True, track_running_stats=True)
          )
        )
      )
    )
    (1): PAIModulePyThread(
      (layerArray): ModuleList(
        (0-3): 4 x BasicBlock(
          (conv1): Conv2d(64, 64, kernel_size=(3, 3), stride=(1, 1), padding=(1, 1), bias=False)
          (bn1): BatchNorm2d(64, eps=1e-05, momentum=0.1, affine=True, track_running_stats=True)
          (relu): ReLU(inplace=True)
          (conv2): Conv2d(64, 64, kernel_size=(3, 3), stride=(1, 1), padding=(1, 1), bias=False)
          (bn2): BatchNorm2d(64, eps=1e-05, momentum=0.1, affine=True, track_running_stats=True)
        )
      )
    )
  )
  (avgpool): AdaptiveAvgPool2d(output_size=(1, 1))
  (fc): PAIModulePyThread(
    (layerArray): ModuleList(
      (0-3): 4 x Linear(in_features=64, out_features=1000, bias=True)
    )
  )
)
layer1.0.layerArray.0.conv1
layer1.0.layerArray.1.conv1
layer1.0.layerArray.2.conv1
layer1.0.layerArray.3.conv1
layer1.1.layerArray.0.conv1
…
selected  UNIMP indices  [[0], [0], [0], [0], [1], [1], [1], [1], [0, 9], [0, 9], [0, 9], [0, 9], [3, 8], [3, 8], [3, 8], [3, 8], [14, 5, 23, 31], [14, 5, 23, 31], [14, 5, 23, 31], [14, 5, 23, 31], [25, 0, 13, 14], [25, 0, 13, 14], [25, 0, 13, 14], [25, 0, 13, 14], [16, 0, 29, 22, 59, 30, 31, 11], [16, 0, 29, 22, 59, 30, 31, 11], [16, 0, 29, 22, 59, 30, 31, 11], [16, 0, 29, 22, 59, 30, 31, 11], [3, 4, 24, 46, 48, 33, 49, 32], [3, 4, 24, 46, 48, 33, 49, 32], [3, 4, 24, 46, 48, 33, 49, 32], [3, 4, 24, 46, 48, 33, 49, 32]]
The length of indices is  32
7
7
7
7
7
7
7
7
14
14
14
14
14
14
14
14
28
28
28
28
28
28
28
28
56
56
56
56
56
56
56
56
ResNet(
  (conv1): PAIModulePyThread(
    (layerArray): ModuleList(
      (0-3): 4 x PBSequential(
        (model): Sequential(
          (0): Conv2d(3, 64, kernel_size=(7, 7), stride=(2, 2), padding=(3, 3), bias=False)
          (1): BatchNorm2d(64, eps=1e-05, momentum=0.1, affine=True, track_running_stats=True)
        )
      )
    )
  )
  (relu): ReLU(inplace=True)
  (maxpool): MaxPool2d(kernel_size=3, stride=2, padding=1, dilation=1, ceil_mode=False)
  (layer1): Sequential(
    (0): PAIModulePyThread(
      (layerArray): ModuleList(
        (0-3): 4 x BasicBlock(
          (conv1): Conv2d(64, 7, kernel_size=(3, 3), stride=(1, 1), padding=(1, 1), bias=False)
          (bn1): BatchNorm2d(7, eps=1e-05, momentum=0.1, affine=True, track_running_stats=True)
          (relu): ReLU(inplace=True)
          (conv2): Conv2d(7, 8, kernel_size=(3, 3), stride=(1, 1), padding=(1, 1), bias=False)
          (bn2): BatchNorm2d(8, eps=1e-05, momentum=0.1, affine=True, track_running_stats=True)
          (downsample): Sequential(
            (0): Conv2d(7, 8, kernel_size=(1, 1), stride=(1, 1), bias=False)
            (1): BatchNorm2d(8, eps=1e-05, momentum=0.1, affine=True, track_running_stats=True)
          )
        )
      )
    )
    (1): PAIModulePyThread(
      (layerArray): ModuleList(
        (0-3): 4 x BasicBlock(
          (conv1): Conv2d(8, 7, kernel_size=(3, 3), stride=(1, 1), padding=(1, 1), bias=False)
          (bn1): BatchNorm2d(7, eps=1e-05, momentum=0.1, affine=True, track_running_stats=True)
          (relu): ReLU(inplace=True)
          (conv2): Conv2d(7, 8, kernel_size=(3, 3), stride=(1, 1), padding=(1, 1), bias=False)
          (bn2): BatchNorm2d(8, eps=1e-05, momentum=0.1, affine=True, track_running_stats=True)
        )
      )
    )
  )
  (layer2): Sequential(
    (0): PAIModulePyThread(
      (layerArray): ModuleList(
        (0-3): 4 x BasicBlock(
          (conv1): Conv2d(8, 14, kernel_size=(3, 3), stride=(2, 2), padding=(1, 1), bias=False)
          (bn1): BatchNorm2d(14, eps=1e-05, momentum=0.1, affine=True, track_running_stats=True)
          (relu): ReLU(inplace=True)
          (conv2): Conv2d(14, 16, kernel_size=(3, 3), stride=(1, 1), padding=(1, 1), bias=False)
          (bn2): BatchNorm2d(16, eps=1e-05, momentum=0.1, affine=True, track_running_stats=True)
          (downsample): Sequential(
            (0): Conv2d(14, 16, kernel_size=(1, 1), stride=(2, 2), bias=False)
            (1): BatchNorm2d(16, eps=1e-05, momentum=0.1, affine=True, track_running_stats=True)
          )
        )
      )
    )
    (1): PAIModulePyThread(
      (layerArray): ModuleList(
        (0-3): 4 x BasicBlock(
          (conv1): Conv2d(16, 14, kernel_size=(3, 3), stride=(1, 1), padding=(1, 1), bias=False)
          (bn1): BatchNorm2d(14, eps=1e-05, momentum=0.1, affine=True, track_running_stats=True)
          (relu): ReLU(inplace=True)
          (conv2): Conv2d(14, 16, kernel_size=(3, 3), stride=(1, 1), padding=(1, 1), bias=False)
          (bn2): BatchNorm2d(16, eps=1e-05, momentum=0.1, affine=True, track_running_stats=True)
        )
      )
    )
  )
  (layer3): Sequential(
    (0): PAIModulePyThread(
      (layerArray): ModuleList(
        (0-3): 4 x BasicBlock(
          (conv1): Conv2d(16, 28, kernel_size=(3, 3), stride=(2, 2), padding=(1, 1), bias=False)
          (bn1): BatchNorm2d(28, eps=1e-05, momentum=0.1, affine=True, track_running_stats=True)
          (relu): ReLU(inplace=True)
          (conv2): Conv2d(28, 32, kernel_size=(3, 3), stride=(1, 1), padding=(1, 1), bias=False)
          (bn2): BatchNorm2d(32, eps=1e-05, momentum=0.1, affine=True, track_running_stats=True)
          (downsample): Sequential(
            (0): Conv2d(28, 32, kernel_size=(1, 1), stride=(2, 2), bias=False)
            (1): BatchNorm2d(32, eps=1e-05, momentum=0.1, affine=True, track_running_stats=True)
          )
        )
      )
    )
    (1): PAIModulePyThread(
      (layerArray): ModuleList(
        (0-3): 4 x BasicBlock(
          (conv1): Conv2d(32, 28, kernel_size=(3, 3), stride=(1, 1), padding=(1, 1), bias=False)
          (bn1): BatchNorm2d(28, eps=1e-05, momentum=0.1, affine=True, track_running_stats=True)
          (relu): ReLU(inplace=True)
          (conv2): Conv2d(28, 32, kernel_size=(3, 3), stride=(1, 1), padding=(1, 1), bias=False)
          (bn2): BatchNorm2d(32, eps=1e-05, momentum=0.1, affine=True, track_running_stats=True)
        )
      )
    )
  )
  (layer4): Sequential(
    (0): PAIModulePyThread(
      (layerArray): ModuleList(
        (0-3): 4 x BasicBlock(
          (conv1): Conv2d(32, 56, kernel_size=(3, 3), stride=(2, 2), padding=(1, 1), bias=False)
          (bn1): BatchNorm2d(56, eps=1e-05, momentum=0.1, affine=True, track_running_stats=True)
          (relu): ReLU(inplace=True)
          (conv2): Conv2d(56, 64, kernel_size=(3, 3), stride=(1, 1), padding=(1, 1), bias=False)
          (bn2): BatchNorm2d(64, eps=1e-05, momentum=0.1, affine=True, track_running_stats=True)
          (downsample): Sequential(
            (0): Conv2d(56, 64, kernel_size=(1, 1), stride=(2, 2), bias=False)
            (1): BatchNorm2d(64, eps=1e-05, momentum=0.1, affine=True, track_running_stats=True)
          )
        )
      )
    )
    (1): PAIModulePyThread(
      (layerArray): ModuleList(
        (0-3): 4 x BasicBlock(
          (conv1): Conv2d(64, 56, kernel_size=(3, 3), stride=(1, 1), padding=(1, 1), bias=False)
          (bn1): BatchNorm2d(56, eps=1e-05, momentum=0.1, affine=True, track_running_stats=True)
          (relu): ReLU(inplace=True)
          (conv2): Conv2d(56, 64, kernel_size=(3, 3), stride=(1, 1), padding=(1, 1), bias=False)
          (bn2): BatchNorm2d(64, eps=1e-05, momentum=0.1, affine=True, track_running_stats=True)
        )
      )
    )
  )
  (avgpool): AdaptiveAvgPool2d(output_size=(1, 1))
  (fc): PAIModulePyThread(
    (layerArray): ModuleList(
      (0-3): 4 x Linear(in_features=64, out_features=1000, bias=True)
    )
  )
)
Training the model after pruning
/usr/lib/python3/dist-packages/requests/__init__.py:89: RequestsDependencyWarning: urllib3 (1.26.12) or chardet (3.0.4) doesn't match a supported version!
…
selected  UNIMP indices  [[6], [6], [6], [6], [4], [4], [4], [2], [0, 1], [0, 1], [0, 1], [7, 6], [9, 4], [9, 4], [9, 4], [9, 13], [27, 23, 22, 8], [27, 23, 22, 8], [27, 23, 22, 8], [27, 23, 17, 22], [5, 11, 1, 14], [5, 11, 1, 14], [5, 11, 1, 14], [5, 14, 1, 11], [52, 37, 19, 47, 14, 42, 4, 6], [52, 37, 19, 47, 14, 42, 4, 6], [52, 37, 19, 47, 14, 42, 4, 6], [52, 37, 47, 42, 34, 19, 14, 4], [3, 25, 23, 11, 9, 26, 48, 8], [3, 25, 23, 11, 9, 26, 48, 8], [3, 25, 23, 11, 9, 26, 48, 8], [23, 25, 3, 26, 11, 9, 48, 46]]
The length of indices is  32
6
6
6
6
6
6
6
6
12
12
12
12
12
12
12
12
24
24
24
24
24
24
24
24
48
48
48
48
48
48
48
48
ResNet(
  (conv1): PAIModulePyThread(
    (layerArray): ModuleList(
      (0-3): 4 x PBSequential(
        (model): Sequential(
          (0): Conv2d(3, 64, kernel_size=(7, 7), stride=(2, 2), padding=(3, 3), bias=False)
          (1): BatchNorm2d(64, eps=1e-05, momentum=0.1, affine=True, track_running_stats=True)
        )
      )
    )
  )
  (relu): ReLU(inplace=True)
  (maxpool): MaxPool2d(kernel_size=3, stride=2, padding=1, dilation=1, ceil_mode=False)
  (layer1): Sequential(
    (0): PAIModulePyThread(
      (layerArray): ModuleList(
        (0-3): 4 x BasicBlock(
          (conv1): Conv2d(64, 6, kernel_size=(3, 3), stride=(1, 1), padding=(1, 1), bias=False)
          (bn1): BatchNorm2d(6, eps=1e-05, momentum=0.1, affine=True, track_running_stats=True)
          (relu): ReLU(inplace=True)
          (conv2): Conv2d(6, 8, kernel_size=(3, 3), stride=(1, 1), padding=(1, 1), bias=False)
          (bn2): BatchNorm2d(8, eps=1e-05, momentum=0.1, affine=True, track_running_stats=True)
          (downsample): Sequential(
            (0): Conv2d(6, 8, kernel_size=(1, 1), stride=(1, 1), bias=False)
            (1): BatchNorm2d(8, eps=1e-05, momentum=0.1, affine=True, track_running_stats=True)
          )
        )
      )
    )
    (1): PAIModulePyThread(
      (layerArray): ModuleList(
        (0-3): 4 x BasicBlock(
          (conv1): Conv2d(8, 6, kernel_size=(3, 3), stride=(1, 1), padding=(1, 1), bias=False)
          (bn1): BatchNorm2d(6, eps=1e-05, momentum=0.1, affine=True, track_running_stats=True)
          (relu): ReLU(inplace=True)
          (conv2): Conv2d(6, 8, kernel_size=(3, 3), stride=(1, 1), padding=(1, 1), bias=False)
          (bn2): BatchNorm2d(8, eps=1e-05, momentum=0.1, affine=True, track_running_stats=True)
        )
      )
    )
  )
  (layer2): Sequential(
    (0): PAIModulePyThread(
      (layerArray): ModuleList(
        (0-3): 4 x BasicBlock(
          (conv1): Conv2d(8, 12, kernel_size=(3, 3), stride=(2, 2), padding=(1, 1), bias=False)
          (bn1): BatchNorm2d(12, eps=1e-05, momentum=0.1, affine=True, track_running_stats=True)
          (relu): ReLU(inplace=True)
          (conv2): Conv2d(12, 16, kernel_size=(3, 3), stride=(1, 1), padding=(1, 1), bias=False)
          (bn2): BatchNorm2d(16, eps=1e-05, momentum=0.1, affine=True, track_running_stats=True)
          (downsample): Sequential(
            (0): Conv2d(12, 16, kernel_size=(1, 1), stride=(2, 2), bias=False)
            (1): BatchNorm2d(16, eps=1e-05, momentum=0.1, affine=True, track_running_stats=True)
          )
        )
      )
    )
    (1): PAIModulePyThread(
      (layerArray): ModuleList(
        (0-3): 4 x BasicBlock(
          (conv1): Conv2d(16, 12, kernel_size=(3, 3), stride=(1, 1), padding=(1, 1), bias=False)
          (bn1): BatchNorm2d(12, eps=1e-05, momentum=0.1, affine=True, track_running_stats=True)
          (relu): ReLU(inplace=True)
          (conv2): Conv2d(12, 16, kernel_size=(3, 3), stride=(1, 1), padding=(1, 1), bias=False)
          (bn2): BatchNorm2d(16, eps=1e-05, momentum=0.1, affine=True, track_running_stats=True)
        )
      )
    )
  )
  (layer3): Sequential(
    (0): PAIModulePyThread(
      (layerArray): ModuleList(
        (0-3): 4 x BasicBlock(
          (conv1): Conv2d(16, 24, kernel_size=(3, 3), stride=(2, 2), padding=(1, 1), bias=False)
          (bn1): BatchNorm2d(24, eps=1e-05, momentum=0.1, affine=True, track_running_stats=True)
          (relu): ReLU(inplace=True)
          (conv2): Conv2d(24, 32, kernel_size=(3, 3), stride=(1, 1), padding=(1, 1), bias=False)
          (bn2): BatchNorm2d(32, eps=1e-05, momentum=0.1, affine=True, track_running_stats=True)
          (downsample): Sequential(
            (0): Conv2d(24, 32, kernel_size=(1, 1), stride=(2, 2), bias=False)
            (1): BatchNorm2d(32, eps=1e-05, momentum=0.1, affine=True, track_running_stats=True)
          )
        )
      )
    )
    (1): PAIModulePyThread(
      (layerArray): ModuleList(
        (0-3): 4 x BasicBlock(
          (conv1): Conv2d(32, 24, kernel_size=(3, 3), stride=(1, 1), padding=(1, 1), bias=False)
          (bn1): BatchNorm2d(24, eps=1e-05, momentum=0.1, affine=True, track_running_stats=True)
          (relu): ReLU(inplace=True)
          (conv2): Conv2d(24, 32, kernel_size=(3, 3), stride=(1, 1), padding=(1, 1), bias=False)
          (bn2): BatchNorm2d(32, eps=1e-05, momentum=0.1, affine=True, track_running_stats=True)
        )
      )
    )
  )
  (layer4): Sequential(
    (0): PAIModulePyThread(
      (layerArray): ModuleList(
        (0-3): 4 x BasicBlock(
          (conv1): Conv2d(32, 48, kernel_size=(3, 3), stride=(2, 2), padding=(1, 1), bias=False)
          (bn1): BatchNorm2d(48, eps=1e-05, momentum=0.1, affine=True, track_running_stats=True)
          (relu): ReLU(inplace=True)
          (conv2): Conv2d(48, 64, kernel_size=(3, 3), stride=(1, 1), padding=(1, 1), bias=False)
          (bn2): BatchNorm2d(64, eps=1e-05, momentum=0.1, affine=True, track_running_stats=True)
          (downsample): Sequential(
            (0): Conv2d(48, 64, kernel_size=(1, 1), stride=(2, 2), bias=False)
            (1): BatchNorm2d(64, eps=1e-05, momentum=0.1, affine=True, track_running_stats=True)
          )
        )
      )
    )
    (1): PAIModulePyThread(
      (layerArray): ModuleList(
        (0-3): 4 x BasicBlock(
          (conv1): Conv2d(64, 48, kernel_size=(3, 3), stride=(1, 1), padding=(1, 1), bias=False)
          (bn1): BatchNorm2d(48, eps=1e-05, momentum=0.1, affine=True, track_running_stats=True)
          (relu): ReLU(inplace=True)
          (conv2): Conv2d(48, 64, kernel_size=(3, 3), stride=(1, 1), padding=(1, 1), bias=False)
          (bn2): BatchNorm2d(64, eps=1e-05, momentum=0.1, affine=True, track_running_stats=True)
        )
      )
    )
  )
  (avgpool): AdaptiveAvgPool2d(output_size=(1, 1))
  (fc): PAIModulePyThread(
    (layerArray): ModuleList(
      (0-3): 4 x Linear(in_features=64, out_features=1000, bias=True)
    )
  )
)
Training the model after pruning

---------------Epoch number: 0 ---Train accuracy: 76.49911347517731 ----Test accuracy: 81.23936170212765 --------------
…
selected  UNIMP indices  [[2], [2], [2], [2], [2], [2], [2], [3], [4, 5], [4, 5], [4, 5], [1, 0], [11, 10], [11, 10], [11, 10], [1, 11], [18, 0, 16, 11], [18, 0, 16, 11], [18, 0, 16, 11], [14, 8, 18, 0], [14, 0, 18, 5], [14, 0, 18, 5], [14, 0, 18, 5], [0, 14, 2, 18], [0, 9, 30, 42, 43, 6, 15, 10], [0, 9, 30, 42, 43, 6, 15, 10], [0, 9, 30, 42, 43, 6, 15, 10], [10, 0, 2, 20, 43, 42, 16, 29], [29, 39, 18, 15, 3, 22, 13, 38], [29, 39, 18, 15, 3, 22, 13, 38], [29, 39, 18, 15, 3, 22, 13, 38], [30, 7, 16, 23, 19, 39, 43, 3]]
The length of indices is  32
5
5
5
5
5
5
5
5
10
10
10
10
10
10
10
10
20
20
20
20
20
20
20
20
40
40
40
40
40
40
40
40
ResNet(
  (conv1): PAIModulePyThread(
    (layerArray): ModuleList(
      (0-3): 4 x PBSequential(
        (model): Sequential(
          (0): Conv2d(3, 64, kernel_size=(7, 7), stride=(2, 2), padding=(3, 3), bias=False)
          (1): BatchNorm2d(64, eps=1e-05, momentum=0.1, affine=True, track_running_stats=True)
        )
      )
    )
  )
  (relu): ReLU(inplace=True)
  (maxpool): MaxPool2d(kernel_size=3, stride=2, padding=1, dilation=1, ceil_mode=False)
  (layer1): Sequential(
    (0): PAIModulePyThread(
      (layerArray): ModuleList(
        (0-3): 4 x BasicBlock(
          (conv1): Conv2d(64, 5, kernel_size=(3, 3), stride=(1, 1), padding=(1, 1), bias=False)
          (bn1): BatchNorm2d(5, eps=1e-05, momentum=0.1, affine=True, track_running_stats=True)
          (relu): ReLU(inplace=True)
          (conv2): Conv2d(5, 8, kernel_size=(3, 3), stride=(1, 1), padding=(1, 1), bias=False)
          (bn2): BatchNorm2d(8, eps=1e-05, momentum=0.1, affine=True, track_running_stats=True)
          (downsample): Sequential(
            (0): Conv2d(5, 8, kernel_size=(1, 1), stride=(1, 1), bias=False)
            (1): BatchNorm2d(8, eps=1e-05, momentum=0.1, affine=True, track_running_stats=True)
          )
        )
      )
    )
    (1): PAIModulePyThread(
      (layerArray): ModuleList(
        (0-3): 4 x BasicBlock(
          (conv1): Conv2d(8, 5, kernel_size=(3, 3), stride=(1, 1), padding=(1, 1), bias=False)
          (bn1): BatchNorm2d(5, eps=1e-05, momentum=0.1, affine=True, track_running_stats=True)
          (relu): ReLU(inplace=True)
          (conv2): Conv2d(5, 8, kernel_size=(3, 3), stride=(1, 1), padding=(1, 1), bias=False)
          (bn2): BatchNorm2d(8, eps=1e-05, momentum=0.1, affine=True, track_running_stats=True)
        )
      )
    )
  )
  (layer2): Sequential(
    (0): PAIModulePyThread(
      (layerArray): ModuleList(
        (0-3): 4 x BasicBlock(
          (conv1): Conv2d(8, 10, kernel_size=(3, 3), stride=(2, 2), padding=(1, 1), bias=False)
          (bn1): BatchNorm2d(10, eps=1e-05, momentum=0.1, affine=True, track_running_stats=True)
          (relu): ReLU(inplace=True)
          (conv2): Conv2d(10, 16, kernel_size=(3, 3), stride=(1, 1), padding=(1, 1), bias=False)
          (bn2): BatchNorm2d(16, eps=1e-05, momentum=0.1, affine=True, track_running_stats=True)
          (downsample): Sequential(
            (0): Conv2d(10, 16, kernel_size=(1, 1), stride=(2, 2), bias=False)
            (1): BatchNorm2d(16, eps=1e-05, momentum=0.1, affine=True, track_running_stats=True)
          )
        )
      )
    )
    (1): PAIModulePyThread(
      (layerArray): ModuleList(
        (0-3): 4 x BasicBlock(
          (conv1): Conv2d(16, 10, kernel_size=(3, 3), stride=(1, 1), padding=(1, 1), bias=False)
          (bn1): BatchNorm2d(10, eps=1e-05, momentum=0.1, affine=True, track_running_stats=True)
          (relu): ReLU(inplace=True)
          (conv2): Conv2d(10, 16, kernel_size=(3, 3), stride=(1, 1), padding=(1, 1), bias=False)
          (bn2): BatchNorm2d(16, eps=1e-05, momentum=0.1, affine=True, track_running_stats=True)
        )
      )
    )
  )
  (layer3): Sequential(
    (0): PAIModulePyThread(
      (layerArray): ModuleList(
        (0-3): 4 x BasicBlock(
          (conv1): Conv2d(16, 20, kernel_size=(3, 3), stride=(2, 2), padding=(1, 1), bias=False)
          (bn1): BatchNorm2d(20, eps=1e-05, momentum=0.1, affine=True, track_running_stats=True)
          (relu): ReLU(inplace=True)
          (conv2): Conv2d(20, 32, kernel_size=(3, 3), stride=(1, 1), padding=(1, 1), bias=False)
          (bn2): BatchNorm2d(32, eps=1e-05, momentum=0.1, affine=True, track_running_stats=True)
          (downsample): Sequential(
            (0): Conv2d(20, 32, kernel_size=(1, 1), stride=(2, 2), bias=False)
            (1): BatchNorm2d(32, eps=1e-05, momentum=0.1, affine=True, track_running_stats=True)
          )
        )
      )
    )
    (1): PAIModulePyThread(
      (layerArray): ModuleList(
        (0-3): 4 x BasicBlock(
          (conv1): Conv2d(32, 20, kernel_size=(3, 3), stride=(1, 1), padding=(1, 1), bias=False)
          (bn1): BatchNorm2d(20, eps=1e-05, momentum=0.1, affine=True, track_running_stats=True)
          (relu): ReLU(inplace=True)
          (conv2): Conv2d(20, 32, kernel_size=(3, 3), stride=(1, 1), padding=(1, 1), bias=False)
          (bn2): BatchNorm2d(32, eps=1e-05, momentum=0.1, affine=True, track_running_stats=True)
        )
      )
    )
  )
  (layer4): Sequential(
    (0): PAIModulePyThread(
      (layerArray): ModuleList(
        (0-3): 4 x BasicBlock(
          (conv1): Conv2d(32, 40, kernel_size=(3, 3), stride=(2, 2), padding=(1, 1), bias=False)
          (bn1): BatchNorm2d(40, eps=1e-05, momentum=0.1, affine=True, track_running_stats=True)
          (relu): ReLU(inplace=True)
          (conv2): Conv2d(40, 64, kernel_size=(3, 3), stride=(1, 1), padding=(1, 1), bias=False)
          (bn2): BatchNorm2d(64, eps=1e-05, momentum=0.1, affine=True, track_running_stats=True)
          (downsample): Sequential(
            (0): Conv2d(40, 64, kernel_size=(1, 1), stride=(2, 2), bias=False)
            (1): BatchNorm2d(64, eps=1e-05, momentum=0.1, affine=True, track_running_stats=True)
          )
        )
      )
    )
    (1): PAIModulePyThread(
      (layerArray): ModuleList(
        (0-3): 4 x BasicBlock(
          (conv1): Conv2d(64, 40, kernel_size=(3, 3), stride=(1, 1), padding=(1, 1), bias=False)
          (bn1): BatchNorm2d(40, eps=1e-05, momentum=0.1, affine=True, track_running_stats=True)
          (relu): ReLU(inplace=True)
          (conv2): Conv2d(40, 64, kernel_size=(3, 3), stride=(1, 1), padding=(1, 1), bias=False)
          (bn2): BatchNorm2d(64, eps=1e-05, momentum=0.1, affine=True, track_running_stats=True)
        )
      )
    )
  )
  (avgpool): AdaptiveAvgPool2d(output_size=(1, 1))
  (fc): PAIModulePyThread(
    (layerArray): ModuleList(
      (0-3): 4 x Linear(in_features=64, out_features=1000, bias=True)
    )
  )
)
Training the model after pruning

---------------Epoch number: 0 ---Train accuracy: 78.40248226950355 ----Test accuracy: 82.93617021276596 --------------
…
selected  UNIMP indices  [[1], [1], [1], [3], [2], [2], [2], [0], [7, 3], [7, 3], [7, 3], [7, 3], [1, 3], [1, 3], [1, 3], [4, 2], [11, 2, 5, 3], [11, 2, 5, 3], [11, 2, 5, 3], [6, 2, 10, 14], [1, 18, 16, 14], [1, 18, 16, 14], [1, 18, 16, 14], [14, 3, 16, 18], [29, 16, 23, 14, 26, 1, 25, 4], [29, 16, 23, 14, 26, 1, 25, 4], [29, 16, 23, 14, 26, 1, 25, 4], [26, 17, 29, 4, 16, 13, 25, 8], [35, 21, 14, 7, 5, 26, 16, 20], [35, 21, 14, 7, 5, 26, 16, 20], [35, 21, 14, 7, 5, 26, 16, 20], [12, 22, 5, 17, 15, 27, 35, 7]]
The length of indices is  32
4
4
4
4
4
4
4
4
8
8
8
8
8
8
8
8
16
16
16
16
16
16
16
16
32
32
32
32
32
32
32
32
ResNet(
  (conv1): PAIModulePyThread(
    (layerArray): ModuleList(
      (0-3): 4 x PBSequential(
        (model): Sequential(
          (0): Conv2d(3, 64, kernel_size=(7, 7), stride=(2, 2), padding=(3, 3), bias=False)
          (1): BatchNorm2d(64, eps=1e-05, momentum=0.1, affine=True, track_running_stats=True)
        )
      )
    )
  )
  (relu): ReLU(inplace=True)
  (maxpool): MaxPool2d(kernel_size=3, stride=2, padding=1, dilation=1, ceil_mode=False)
  (layer1): Sequential(
    (0): PAIModulePyThread(
      (layerArray): ModuleList(
        (0-3): 4 x BasicBlock(
          (conv1): Conv2d(64, 4, kernel_size=(3, 3), stride=(1, 1), padding=(1, 1), bias=False)
          (bn1): BatchNorm2d(4, eps=1e-05, momentum=0.1, affine=True, track_running_stats=True)
          (relu): ReLU(inplace=True)
          (conv2): Conv2d(4, 8, kernel_size=(3, 3), stride=(1, 1), padding=(1, 1), bias=False)
          (bn2): BatchNorm2d(8, eps=1e-05, momentum=0.1, affine=True, track_running_stats=True)
          (downsample): Sequential(
            (0): Conv2d(4, 8, kernel_size=(1, 1), stride=(1, 1), bias=False)
            (1): BatchNorm2d(8, eps=1e-05, momentum=0.1, affine=True, track_running_stats=True)
          )
        )
      )
    )
    (1): PAIModulePyThread(
      (layerArray): ModuleList(
        (0-3): 4 x BasicBlock(
          (conv1): Conv2d(8, 4, kernel_size=(3, 3), stride=(1, 1), padding=(1, 1), bias=False)
          (bn1): BatchNorm2d(4, eps=1e-05, momentum=0.1, affine=True, track_running_stats=True)
          (relu): ReLU(inplace=True)
          (conv2): Conv2d(4, 8, kernel_size=(3, 3), stride=(1, 1), padding=(1, 1), bias=False)
          (bn2): BatchNorm2d(8, eps=1e-05, momentum=0.1, affine=True, track_running_stats=True)
        )
      )
    )
  )
  (layer2): Sequential(
    (0): PAIModulePyThread(
      (layerArray): ModuleList(
        (0-3): 4 x BasicBlock(
          (conv1): Conv2d(8, 8, kernel_size=(3, 3), stride=(2, 2), padding=(1, 1), bias=False)
          (bn1): BatchNorm2d(8, eps=1e-05, momentum=0.1, affine=True, track_running_stats=True)
          (relu): ReLU(inplace=True)
          (conv2): Conv2d(8, 16, kernel_size=(3, 3), stride=(1, 1), padding=(1, 1), bias=False)
          (bn2): BatchNorm2d(16, eps=1e-05, momentum=0.1, affine=True, track_running_stats=True)
          (downsample): Sequential(
            (0): Conv2d(8, 16, kernel_size=(1, 1), stride=(2, 2), bias=False)
            (1): BatchNorm2d(16, eps=1e-05, momentum=0.1, affine=True, track_running_stats=True)
          )
        )
      )
    )
    (1): PAIModulePyThread(
      (layerArray): ModuleList(
        (0-3): 4 x BasicBlock(
          (conv1): Conv2d(16, 8, kernel_size=(3, 3), stride=(1, 1), padding=(1, 1), bias=False)
          (bn1): BatchNorm2d(8, eps=1e-05, momentum=0.1, affine=True, track_running_stats=True)
          (relu): ReLU(inplace=True)
          (conv2): Conv2d(8, 16, kernel_size=(3, 3), stride=(1, 1), padding=(1, 1), bias=False)
          (bn2): BatchNorm2d(16, eps=1e-05, momentum=0.1, affine=True, track_running_stats=True)
        )
      )
    )
  )
  (layer3): Sequential(
    (0): PAIModulePyThread(
      (layerArray): ModuleList(
        (0-3): 4 x BasicBlock(
          (conv1): Conv2d(16, 16, kernel_size=(3, 3), stride=(2, 2), padding=(1, 1), bias=False)
          (bn1): BatchNorm2d(16, eps=1e-05, momentum=0.1, affine=True, track_running_stats=True)
          (relu): ReLU(inplace=True)
          (conv2): Conv2d(16, 32, kernel_size=(3, 3), stride=(1, 1), padding=(1, 1), bias=False)
          (bn2): BatchNorm2d(32, eps=1e-05, momentum=0.1, affine=True, track_running_stats=True)
          (downsample): Sequential(
            (0): Conv2d(16, 32, kernel_size=(1, 1), stride=(2, 2), bias=False)
            (1): BatchNorm2d(32, eps=1e-05, momentum=0.1, affine=True, track_running_stats=True)
          )
        )
      )
    )
    (1): PAIModulePyThread(
      (layerArray): ModuleList(
        (0-3): 4 x BasicBlock(
          (conv1): Conv2d(32, 16, kernel_size=(3, 3), stride=(1, 1), padding=(1, 1), bias=False)
          (bn1): BatchNorm2d(16, eps=1e-05, momentum=0.1, affine=True, track_running_stats=True)
          (relu): ReLU(inplace=True)
          (conv2): Conv2d(16, 32, kernel_size=(3, 3), stride=(1, 1), padding=(1, 1), bias=False)
          (bn2): BatchNorm2d(32, eps=1e-05, momentum=0.1, affine=True, track_running_stats=True)
        )
      )
    )
  )
  (layer4): Sequential(
    (0): PAIModulePyThread(
      (layerArray): ModuleList(
        (0-3): 4 x BasicBlock(
          (conv1): Conv2d(32, 32, kernel_size=(3, 3), stride=(2, 2), padding=(1, 1), bias=False)
          (bn1): BatchNorm2d(32, eps=1e-05, momentum=0.1, affine=True, track_running_stats=True)
          (relu): ReLU(inplace=True)
          (conv2): Conv2d(32, 64, kernel_size=(3, 3), stride=(1, 1), padding=(1, 1), bias=False)
          (bn2): BatchNorm2d(64, eps=1e-05, momentum=0.1, affine=True, track_running_stats=True)
          (downsample): Sequential(
            (0): Conv2d(32, 64, kernel_size=(1, 1), stride=(2, 2), bias=False)
            (1): BatchNorm2d(64, eps=1e-05, momentum=0.1, affine=True, track_running_stats=True)
          )
        )
      )
    )
    (1): PAIModulePyThread(
      (layerArray): ModuleList(
        (0-3): 4 x BasicBlock(
          (conv1): Conv2d(64, 32, kernel_size=(3, 3), stride=(1, 1), padding=(1, 1), bias=False)
          (bn1): BatchNorm2d(32, eps=1e-05, momentum=0.1, affine=True, track_running_stats=True)
          (relu): ReLU(inplace=True)
          (conv2): Conv2d(32, 64, kernel_size=(3, 3), stride=(1, 1), padding=(1, 1), bias=False)
          (bn2): BatchNorm2d(64, eps=1e-05, momentum=0.1, affine=True, track_running_stats=True)
        )
      )
    )
  )
  (avgpool): AdaptiveAvgPool2d(output_size=(1, 1))
  (fc): PAIModulePyThread(
    (layerArray): ModuleList(
      (0-3): 4 x Linear(in_features=64, out_features=1000, bias=True)
    )
  )
)
Training the model after pruning

---------------Epoch number: 0 ---Train accuracy: 74.58244680851064 ----Test accuracy: 81.84574468085107 --------------
…
selected  UNIMP indices  [[2], [2], [2], [1], [0], [0], [0], [1], [4, 0], [4, 0], [4, 0], [0, 6], [6, 2], [6, 2], [6, 2], [6, 0], [5, 10, 13, 2], [5, 10, 13, 2], [5, 10, 13, 2], [13, 2, 6, 1], [11, 6, 5, 14], [11, 6, 5, 14], [11, 6, 5, 14], [11, 6, 4, 5], [18, 4, 12, 24, 11, 26, 16, 23], [18, 4, 12, 24, 11, 26, 16, 23], [18, 4, 12, 24, 11, 26, 16, 23], [12, 28, 3, 16, 4, 18, 11, 6], [27, 22, 14, 16, 3, 30, 9, 29], [27, 22, 14, 16, 3, 30, 9, 29], [27, 22, 14, 16, 3, 30, 9, 29], [16, 14, 23, 17, 9, 30, 10, 3]]
The length of indices is  32
3
3
3
3
3
3
3
3
6
6
6
6
6
6
6
6
12
12
12
12
12
12
12
12
24
24
24
24
24
24
24
24
ResNet(
  (conv1): PAIModulePyThread(
    (layerArray): ModuleList(
      (0-3): 4 x PBSequential(
        (model): Sequential(
          (0): Conv2d(3, 64, kernel_size=(7, 7), stride=(2, 2), padding=(3, 3), bias=False)
          (1): BatchNorm2d(64, eps=1e-05, momentum=0.1, affine=True, track_running_stats=True)
        )
      )
    )
  )
  (relu): ReLU(inplace=True)
  (maxpool): MaxPool2d(kernel_size=3, stride=2, padding=1, dilation=1, ceil_mode=False)
  (layer1): Sequential(
    (0): PAIModulePyThread(
      (layerArray): ModuleList(
        (0-3): 4 x BasicBlock(
          (conv1): Conv2d(64, 3, kernel_size=(3, 3), stride=(1, 1), padding=(1, 1), bias=False)
          (bn1): BatchNorm2d(3, eps=1e-05, momentum=0.1, affine=True, track_running_stats=True)
          (relu): ReLU(inplace=True)
          (conv2): Conv2d(3, 8, kernel_size=(3, 3), stride=(1, 1), padding=(1, 1), bias=False)
          (bn2): BatchNorm2d(8, eps=1e-05, momentum=0.1, affine=True, track_running_stats=True)
          (downsample): Sequential(
            (0): Conv2d(3, 8, kernel_size=(1, 1), stride=(1, 1), bias=False)
            (1): BatchNorm2d(8, eps=1e-05, momentum=0.1, affine=True, track_running_stats=True)
          )
        )
      )
    )
    (1): PAIModulePyThread(
      (layerArray): ModuleList(
        (0-3): 4 x BasicBlock(
          (conv1): Conv2d(8, 3, kernel_size=(3, 3), stride=(1, 1), padding=(1, 1), bias=False)
          (bn1): BatchNorm2d(3, eps=1e-05, momentum=0.1, affine=True, track_running_stats=True)
          (relu): ReLU(inplace=True)
          (conv2): Conv2d(3, 8, kernel_size=(3, 3), stride=(1, 1), padding=(1, 1), bias=False)
          (bn2): BatchNorm2d(8, eps=1e-05, momentum=0.1, affine=True, track_running_stats=True)
        )
      )
    )
  )
  (layer2): Sequential(
    (0): PAIModulePyThread(
      (layerArray): ModuleList(
        (0-3): 4 x BasicBlock(
          (conv1): Conv2d(8, 6, kernel_size=(3, 3), stride=(2, 2), padding=(1, 1), bias=False)
          (bn1): BatchNorm2d(6, eps=1e-05, momentum=0.1, affine=True, track_running_stats=True)
          (relu): ReLU(inplace=True)
          (conv2): Conv2d(6, 16, kernel_size=(3, 3), stride=(1, 1), padding=(1, 1), bias=False)
          (bn2): BatchNorm2d(16, eps=1e-05, momentum=0.1, affine=True, track_running_stats=True)
          (downsample): Sequential(
            (0): Conv2d(6, 16, kernel_size=(1, 1), stride=(2, 2), bias=False)
            (1): BatchNorm2d(16, eps=1e-05, momentum=0.1, affine=True, track_running_stats=True)
          )
        )
      )
    )
    (1): PAIModulePyThread(
      (layerArray): ModuleList(
        (0-3): 4 x BasicBlock(
          (conv1): Conv2d(16, 6, kernel_size=(3, 3), stride=(1, 1), padding=(1, 1), bias=False)
          (bn1): BatchNorm2d(6, eps=1e-05, momentum=0.1, affine=True, track_running_stats=True)
          (relu): ReLU(inplace=True)
          (conv2): Conv2d(6, 16, kernel_size=(3, 3), stride=(1, 1), padding=(1, 1), bias=False)
          (bn2): BatchNorm2d(16, eps=1e-05, momentum=0.1, affine=True, track_running_stats=True)
        )
      )
    )
  )
  (layer3): Sequential(
    (0): PAIModulePyThread(
      (layerArray): ModuleList(
        (0-3): 4 x BasicBlock(
          (conv1): Conv2d(16, 12, kernel_size=(3, 3), stride=(2, 2), padding=(1, 1), bias=False)
          (bn1): BatchNorm2d(12, eps=1e-05, momentum=0.1, affine=True, track_running_stats=True)
          (relu): ReLU(inplace=True)
          (conv2): Conv2d(12, 32, kernel_size=(3, 3), stride=(1, 1), padding=(1, 1), bias=False)
          (bn2): BatchNorm2d(32, eps=1e-05, momentum=0.1, affine=True, track_running_stats=True)
          (downsample): Sequential(
            (0): Conv2d(12, 32, kernel_size=(1, 1), stride=(2, 2), bias=False)
            (1): BatchNorm2d(32, eps=1e-05, momentum=0.1, affine=True, track_running_stats=True)
          )
        )
      )
    )
    (1): PAIModulePyThread(
      (layerArray): ModuleList(
        (0-3): 4 x BasicBlock(
          (conv1): Conv2d(32, 12, kernel_size=(3, 3), stride=(1, 1), padding=(1, 1), bias=False)
          (bn1): BatchNorm2d(12, eps=1e-05, momentum=0.1, affine=True, track_running_stats=True)
          (relu): ReLU(inplace=True)
          (conv2): Conv2d(12, 32, kernel_size=(3, 3), stride=(1, 1), padding=(1, 1), bias=False)
          (bn2): BatchNorm2d(32, eps=1e-05, momentum=0.1, affine=True, track_running_stats=True)
        )
      )
    )
  )
  (layer4): Sequential(
    (0): PAIModulePyThread(
      (layerArray): ModuleList(
        (0-3): 4 x BasicBlock(
          (conv1): Conv2d(32, 24, kernel_size=(3, 3), stride=(2, 2), padding=(1, 1), bias=False)
          (bn1): BatchNorm2d(24, eps=1e-05, momentum=0.1, affine=True, track_running_stats=True)
          (relu): ReLU(inplace=True)
          (conv2): Conv2d(24, 64, kernel_size=(3, 3), stride=(1, 1), padding=(1, 1), bias=False)
          (bn2): BatchNorm2d(64, eps=1e-05, momentum=0.1, affine=True, track_running_stats=True)
          (downsample): Sequential(
            (0): Conv2d(24, 64, kernel_size=(1, 1), stride=(2, 2), bias=False)
            (1): BatchNorm2d(64, eps=1e-05, momentum=0.1, affine=True, track_running_stats=True)
          )
        )
      )
    )
    (1): PAIModulePyThread(
      (layerArray): ModuleList(
        (0-3): 4 x BasicBlock(
          (conv1): Conv2d(64, 24, kernel_size=(3, 3), stride=(1, 1), padding=(1, 1), bias=False)
          (bn1): BatchNorm2d(24, eps=1e-05, momentum=0.1, affine=True, track_running_stats=True)
          (relu): ReLU(inplace=True)
          (conv2): Conv2d(24, 64, kernel_size=(3, 3), stride=(1, 1), padding=(1, 1), bias=False)
          (bn2): BatchNorm2d(64, eps=1e-05, momentum=0.1, affine=True, track_running_stats=True)
        )
      )
    )
  )
  (avgpool): AdaptiveAvgPool2d(output_size=(1, 1))
  (fc): PAIModulePyThread(
    (layerArray): ModuleList(
      (0-3): 4 x Linear(in_features=64, out_features=1000, bias=True)
    )
  )
)
Training the model after pruning

---------------Epoch number: 0 ---Train accuracy: 76.04875886524823 ----Test accuracy: 82.53191489361703 --------------
…
selected  UNIMP indices  [[1], [1], [1], [1], [2], [2], [2], [1], [2, 3], [2, 3], [2, 3], [3, 4], [4, 3], [4, 3], [4, 3], [1, 4], [2, 4, 7, 1], [2, 4, 7, 1], [2, 4, 7, 1], [2, 6, 7, 4], [4, 9, 3, 11], [4, 9, 3, 11], [4, 9, 3, 11], [10, 3, 11, 5], [19, 23, 5, 13, 8, 20, 9, 11], [19, 23, 5, 13, 8, 20, 9, 11], [19, 23, 5, 13, 8, 20, 9, 11], [19, 20, 16, 9, 17, 23, 5, 11], [17, 3, 22, 8, 23, 16, 11, 4], [17, 3, 22, 8, 23, 16, 11, 4], [17, 3, 22, 8, 23, 16, 11, 4], [3, 22, 4, 16, 15, 12, 20, 10]]
The length of indices is  32
2
2
2
2
2
2
2
2
4
4
4
4
4
4
4
4
8
8
8
8
8
8
8
8
16
16
16
16
16
16
16
16
ResNet(
  (conv1): PAIModulePyThread(
    (layerArray): ModuleList(
      (0-3): 4 x PBSequential(
        (model): Sequential(
          (0): Conv2d(3, 64, kernel_size=(7, 7), stride=(2, 2), padding=(3, 3), bias=False)
          (1): BatchNorm2d(64, eps=1e-05, momentum=0.1, affine=True, track_running_stats=True)
        )
      )
    )
  )
  (relu): ReLU(inplace=True)
  (maxpool): MaxPool2d(kernel_size=3, stride=2, padding=1, dilation=1, ceil_mode=False)
  (layer1): Sequential(
    (0): PAIModulePyThread(
      (layerArray): ModuleList(
        (0-3): 4 x BasicBlock(
          (conv1): Conv2d(64, 2, kernel_size=(3, 3), stride=(1, 1), padding=(1, 1), bias=False)
          (bn1): BatchNorm2d(2, eps=1e-05, momentum=0.1, affine=True, track_running_stats=True)
          (relu): ReLU(inplace=True)
          (conv2): Conv2d(2, 8, kernel_size=(3, 3), stride=(1, 1), padding=(1, 1), bias=False)
          (bn2): BatchNorm2d(8, eps=1e-05, momentum=0.1, affine=True, track_running_stats=True)
          (downsample): Sequential(
            (0): Conv2d(2, 8, kernel_size=(1, 1), stride=(1, 1), bias=False)
            (1): BatchNorm2d(8, eps=1e-05, momentum=0.1, affine=True, track_running_stats=True)
          )
        )
      )
    )
    (1): PAIModulePyThread(
      (layerArray): ModuleList(
        (0-3): 4 x BasicBlock(
          (conv1): Conv2d(8, 2, kernel_size=(3, 3), stride=(1, 1), padding=(1, 1), bias=False)
          (bn1): BatchNorm2d(2, eps=1e-05, momentum=0.1, affine=True, track_running_stats=True)
          (relu): ReLU(inplace=True)
          (conv2): Conv2d(2, 8, kernel_size=(3, 3), stride=(1, 1), padding=(1, 1), bias=False)
          (bn2): BatchNorm2d(8, eps=1e-05, momentum=0.1, affine=True, track_running_stats=True)
        )
      )
    )
  )
  (layer2): Sequential(
    (0): PAIModulePyThread(
      (layerArray): ModuleList(
        (0-3): 4 x BasicBlock(
          (conv1): Conv2d(8, 4, kernel_size=(3, 3), stride=(2, 2), padding=(1, 1), bias=False)
          (bn1): BatchNorm2d(4, eps=1e-05, momentum=0.1, affine=True, track_running_stats=True)
          (relu): ReLU(inplace=True)
          (conv2): Conv2d(4, 16, kernel_size=(3, 3), stride=(1, 1), padding=(1, 1), bias=False)
          (bn2): BatchNorm2d(16, eps=1e-05, momentum=0.1, affine=True, track_running_stats=True)
          (downsample): Sequential(
            (0): Conv2d(4, 16, kernel_size=(1, 1), stride=(2, 2), bias=False)
            (1): BatchNorm2d(16, eps=1e-05, momentum=0.1, affine=True, track_running_stats=True)
          )
        )
      )
    )
    (1): PAIModulePyThread(
      (layerArray): ModuleList(
        (0-3): 4 x BasicBlock(
          (conv1): Conv2d(16, 4, kernel_size=(3, 3), stride=(1, 1), padding=(1, 1), bias=False)
          (bn1): BatchNorm2d(4, eps=1e-05, momentum=0.1, affine=True, track_running_stats=True)
          (relu): ReLU(inplace=True)
          (conv2): Conv2d(4, 16, kernel_size=(3, 3), stride=(1, 1), padding=(1, 1), bias=False)
          (bn2): BatchNorm2d(16, eps=1e-05, momentum=0.1, affine=True, track_running_stats=True)
        )
      )
    )
  )
  (layer3): Sequential(
    (0): PAIModulePyThread(
      (layerArray): ModuleList(
        (0-3): 4 x BasicBlock(
          (conv1): Conv2d(16, 8, kernel_size=(3, 3), stride=(2, 2), padding=(1, 1), bias=False)
          (bn1): BatchNorm2d(8, eps=1e-05, momentum=0.1, affine=True, track_running_stats=True)
          (relu): ReLU(inplace=True)
          (conv2): Conv2d(8, 32, kernel_size=(3, 3), stride=(1, 1), padding=(1, 1), bias=False)
          (bn2): BatchNorm2d(32, eps=1e-05, momentum=0.1, affine=True, track_running_stats=True)
          (downsample): Sequential(
            (0): Conv2d(8, 32, kernel_size=(1, 1), stride=(2, 2), bias=False)
            (1): BatchNorm2d(32, eps=1e-05, momentum=0.1, affine=True, track_running_stats=True)
          )
        )
      )
    )
    (1): PAIModulePyThread(
      (layerArray): ModuleList(
        (0-3): 4 x BasicBlock(
          (conv1): Conv2d(32, 8, kernel_size=(3, 3), stride=(1, 1), padding=(1, 1), bias=False)
          (bn1): BatchNorm2d(8, eps=1e-05, momentum=0.1, affine=True, track_running_stats=True)
          (relu): ReLU(inplace=True)
          (conv2): Conv2d(8, 32, kernel_size=(3, 3), stride=(1, 1), padding=(1, 1), bias=False)
          (bn2): BatchNorm2d(32, eps=1e-05, momentum=0.1, affine=True, track_running_stats=True)
        )
      )
    )
  )
  (layer4): Sequential(
    (0): PAIModulePyThread(
      (layerArray): ModuleList(
        (0-3): 4 x BasicBlock(
          (conv1): Conv2d(32, 16, kernel_size=(3, 3), stride=(2, 2), padding=(1, 1), bias=False)
          (bn1): BatchNorm2d(16, eps=1e-05, momentum=0.1, affine=True, track_running_stats=True)
          (relu): ReLU(inplace=True)
          (conv2): Conv2d(16, 64, kernel_size=(3, 3), stride=(1, 1), padding=(1, 1), bias=False)
          (bn2): BatchNorm2d(64, eps=1e-05, momentum=0.1, affine=True, track_running_stats=True)
          (downsample): Sequential(
            (0): Conv2d(16, 64, kernel_size=(1, 1), stride=(2, 2), bias=False)
            (1): BatchNorm2d(64, eps=1e-05, momentum=0.1, affine=True, track_running_stats=True)
          )
        )
      )
    )
    (1): PAIModulePyThread(
      (layerArray): ModuleList(
        (0-3): 4 x BasicBlock(
          (conv1): Conv2d(64, 16, kernel_size=(3, 3), stride=(1, 1), padding=(1, 1), bias=False)
          (bn1): BatchNorm2d(16, eps=1e-05, momentum=0.1, affine=True, track_running_stats=True)
          (relu): ReLU(inplace=True)
          (conv2): Conv2d(16, 64, kernel_size=(3, 3), stride=(1, 1), padding=(1, 1), bias=False)
          (bn2): BatchNorm2d(64, eps=1e-05, momentum=0.1, affine=True, track_running_stats=True)
        )
      )
    )
  )
  (avgpool): AdaptiveAvgPool2d(output_size=(1, 1))
  (fc): PAIModulePyThread(
    (layerArray): ModuleList(
      (0-3): 4 x Linear(in_features=64, out_features=1000, bias=True)
    )
  )
)
Training the model after pruning

---------------Epoch number: 0 ---Train accuracy: 69.35992907801419 ----Test accuracy: 78.70212765957447 --------------
…
selected  UNIMP indices  [[0], [0], [0], [1], [1], [1], [1], [1], [1, 2], [1, 2], [1, 2], [2, 1], [3, 1], [3, 1], [3, 1], [2, 3], [4, 3, 6, 0], [4, 3, 6, 0], [4, 3, 6, 0], [7, 1, 4, 0], [1, 3, 0, 4], [1, 3, 0, 4], [1, 3, 0, 4], [1, 0, 6, 3], [13, 12, 0, 10, 11, 14, 2, 1], [13, 12, 0, 10, 11, 14, 2, 1], [13, 12, 0, 10, 11, 14, 2, 1], [10, 12, 15, 14, 1, 5, 11, 2], [15, 5, 9, 13, 2, 12, 4, 3], [15, 5, 9, 13, 2, 12, 4, 3], [15, 5, 9, 13, 2, 12, 4, 3], [14, 15, 2, 11, 12, 5, 4, 3]]
The length of indices is  32
1
1
1
1
1
1
1
1
2
2
2
2
2
2
2
2
4
4
4
4
4
4
4
4
8
8
8
8
8
8
8
8
ResNet(
  (conv1): PAIModulePyThread(
    (layerArray): ModuleList(
      (0-3): 4 x PBSequential(
        (model): Sequential(
          (0): Conv2d(3, 64, kernel_size=(7, 7), stride=(2, 2), padding=(3, 3), bias=False)
          (1): BatchNorm2d(64, eps=1e-05, momentum=0.1, affine=True, track_running_stats=True)
        )
      )
    )
  )
  (relu): ReLU(inplace=True)
  (maxpool): MaxPool2d(kernel_size=3, stride=2, padding=1, dilation=1, ceil_mode=False)
  (layer1): Sequential(
    (0): PAIModulePyThread(
      (layerArray): ModuleList(
        (0-3): 4 x BasicBlock(
          (conv1): Conv2d(64, 1, kernel_size=(3, 3), stride=(1, 1), padding=(1, 1), bias=False)
          (bn1): BatchNorm2d(1, eps=1e-05, momentum=0.1, affine=True, track_running_stats=True)
          (relu): ReLU(inplace=True)
          (conv2): Conv2d(1, 8, kernel_size=(3, 3), stride=(1, 1), padding=(1, 1), bias=False)
          (bn2): BatchNorm2d(8, eps=1e-05, momentum=0.1, affine=True, track_running_stats=True)
          (downsample): Sequential(
            (0): Conv2d(1, 8, kernel_size=(1, 1), stride=(1, 1), bias=False)
            (1): BatchNorm2d(8, eps=1e-05, momentum=0.1, affine=True, track_running_stats=True)
          )
        )
      )
    )
    (1): PAIModulePyThread(
      (layerArray): ModuleList(
        (0-3): 4 x BasicBlock(
          (conv1): Conv2d(8, 1, kernel_size=(3, 3), stride=(1, 1), padding=(1, 1), bias=False)
          (bn1): BatchNorm2d(1, eps=1e-05, momentum=0.1, affine=True, track_running_stats=True)
          (relu): ReLU(inplace=True)
          (conv2): Conv2d(1, 8, kernel_size=(3, 3), stride=(1, 1), padding=(1, 1), bias=False)
          (bn2): BatchNorm2d(8, eps=1e-05, momentum=0.1, affine=True, track_running_stats=True)
        )
      )
    )
  )
  (layer2): Sequential(
    (0): PAIModulePyThread(
      (layerArray): ModuleList(
        (0-3): 4 x BasicBlock(
          (conv1): Conv2d(8, 2, kernel_size=(3, 3), stride=(2, 2), padding=(1, 1), bias=False)
          (bn1): BatchNorm2d(2, eps=1e-05, momentum=0.1, affine=True, track_running_stats=True)
          (relu): ReLU(inplace=True)
          (conv2): Conv2d(2, 16, kernel_size=(3, 3), stride=(1, 1), padding=(1, 1), bias=False)
          (bn2): BatchNorm2d(16, eps=1e-05, momentum=0.1, affine=True, track_running_stats=True)
          (downsample): Sequential(
            (0): Conv2d(2, 16, kernel_size=(1, 1), stride=(2, 2), bias=False)
            (1): BatchNorm2d(16, eps=1e-05, momentum=0.1, affine=True, track_running_stats=True)
          )
        )
      )
    )
    (1): PAIModulePyThread(
      (layerArray): ModuleList(
        (0-3): 4 x BasicBlock(
          (conv1): Conv2d(16, 2, kernel_size=(3, 3), stride=(1, 1), padding=(1, 1), bias=False)
          (bn1): BatchNorm2d(2, eps=1e-05, momentum=0.1, affine=True, track_running_stats=True)
          (relu): ReLU(inplace=True)
          (conv2): Conv2d(2, 16, kernel_size=(3, 3), stride=(1, 1), padding=(1, 1), bias=False)
          (bn2): BatchNorm2d(16, eps=1e-05, momentum=0.1, affine=True, track_running_stats=True)
        )
      )
    )
  )
  (layer3): Sequential(
    (0): PAIModulePyThread(
      (layerArray): ModuleList(
        (0-3): 4 x BasicBlock(
          (conv1): Conv2d(16, 4, kernel_size=(3, 3), stride=(2, 2), padding=(1, 1), bias=False)
          (bn1): BatchNorm2d(4, eps=1e-05, momentum=0.1, affine=True, track_running_stats=True)
          (relu): ReLU(inplace=True)
          (conv2): Conv2d(4, 32, kernel_size=(3, 3), stride=(1, 1), padding=(1, 1), bias=False)
          (bn2): BatchNorm2d(32, eps=1e-05, momentum=0.1, affine=True, track_running_stats=True)
          (downsample): Sequential(
            (0): Conv2d(4, 32, kernel_size=(1, 1), stride=(2, 2), bias=False)
            (1): BatchNorm2d(32, eps=1e-05, momentum=0.1, affine=True, track_running_stats=True)
          )
        )
      )
    )
    (1): PAIModulePyThread(
      (layerArray): ModuleList(
        (0-3): 4 x BasicBlock(
          (conv1): Conv2d(32, 4, kernel_size=(3, 3), stride=(1, 1), padding=(1, 1), bias=False)
          (bn1): BatchNorm2d(4, eps=1e-05, momentum=0.1, affine=True, track_running_stats=True)
          (relu): ReLU(inplace=True)
          (conv2): Conv2d(4, 32, kernel_size=(3, 3), stride=(1, 1), padding=(1, 1), bias=False)
          (bn2): BatchNorm2d(32, eps=1e-05, momentum=0.1, affine=True, track_running_stats=True)
        )
      )
    )
  )
  (layer4): Sequential(
    (0): PAIModulePyThread(
      (layerArray): ModuleList(
        (0-3): 4 x BasicBlock(
          (conv1): Conv2d(32, 8, kernel_size=(3, 3), stride=(2, 2), padding=(1, 1), bias=False)
          (bn1): BatchNorm2d(8, eps=1e-05, momentum=0.1, affine=True, track_running_stats=True)
          (relu): ReLU(inplace=True)
          (conv2): Conv2d(8, 64, kernel_size=(3, 3), stride=(1, 1), padding=(1, 1), bias=False)
          (bn2): BatchNorm2d(64, eps=1e-05, momentum=0.1, affine=True, track_running_stats=True)
          (downsample): Sequential(
            (0): Conv2d(8, 64, kernel_size=(1, 1), stride=(2, 2), bias=False)
            (1): BatchNorm2d(64, eps=1e-05, momentum=0.1, affine=True, track_running_stats=True)
          )
        )
      )
    )
    (1): PAIModulePyThread(
      (layerArray): ModuleList(
        (0-3): 4 x BasicBlock(
          (conv1): Conv2d(64, 8, kernel_size=(3, 3), stride=(1, 1), padding=(1, 1), bias=False)
          (bn1): BatchNorm2d(8, eps=1e-05, momentum=0.1, affine=True, track_running_stats=True)
          (relu): ReLU(inplace=True)
          (conv2): Conv2d(8, 64, kernel_size=(3, 3), stride=(1, 1), padding=(1, 1), bias=False)
          (bn2): BatchNorm2d(64, eps=1e-05, momentum=0.1, affine=True, track_running_stats=True)
        )
      )
    )
  )
  (avgpool): AdaptiveAvgPool2d(output_size=(1, 1))
  (fc): PAIModulePyThread(
    (layerArray): ModuleList(
      (0-3): 4 x Linear(in_features=64, out_features=1000, bias=True)
    )
  )
)
Training the model after pruning

---------------Epoch number: 0 ---Train accuracy: 54.570035460992905 ----Test accuracy: 69.34042553191489 --------------
…
selected  UNIMP indices  [[], [], [], [], [], [], [], [], [0], [0], [0], [1], [0], [0], [0], [1], [3, 1, 2], [3, 1, 2], [3, 1, 2], [2, 1, 3], [2, 0, 3], [2, 0, 3], [2, 0, 3], [0, 2, 1], [1, 5, 7, 6, 2, 0, 4], [1, 5, 7, 6, 2, 0, 4], [1, 5, 7, 6, 2, 0, 4], [7, 5, 0, 6, 2, 1, 4], [5, 4, 7, 6, 2, 0, 3], [5, 4, 7, 6, 2, 0, 3], [5, 4, 7, 6, 2, 0, 3], [5, 7, 4, 2, 6, 0, 3]]
The length of indices is  32
1
1
1
1
1
1
1
1
1
1
1
1
1
1
1
1
1
1
1
1
1
1
1
1
1
1
1
1
1
1
1
1
ResNet(
  (conv1): PAIModulePyThread(
    (layerArray): ModuleList(
      (0-3): 4 x PBSequential(
        (model): Sequential(
          (0): Conv2d(3, 64, kernel_size=(7, 7), stride=(2, 2), padding=(3, 3), bias=False)
          (1): BatchNorm2d(64, eps=1e-05, momentum=0.1, affine=True, track_running_stats=True)
        )
      )
    )
  )
  (relu): ReLU(inplace=True)
  (maxpool): MaxPool2d(kernel_size=3, stride=2, padding=1, dilation=1, ceil_mode=False)
  (layer1): Sequential(
    (0): PAIModulePyThread(
      (layerArray): ModuleList(
        (0-3): 4 x BasicBlock(
          (conv1): Conv2d(64, 1, kernel_size=(3, 3), stride=(1, 1), padding=(1, 1), bias=False)
          (bn1): BatchNorm2d(1, eps=1e-05, momentum=0.1, affine=True, track_running_stats=True)
          (relu): ReLU(inplace=True)
          (conv2): Conv2d(1, 8, kernel_size=(3, 3), stride=(1, 1), padding=(1, 1), bias=False)
          (bn2): BatchNorm2d(8, eps=1e-05, momentum=0.1, affine=True, track_running_stats=True)
          (downsample): Sequential(
            (0): Conv2d(1, 8, kernel_size=(1, 1), stride=(1, 1), bias=False)
            (1): BatchNorm2d(8, eps=1e-05, momentum=0.1, affine=True, track_running_stats=True)
          )
        )
      )
    )
    (1): PAIModulePyThread(
      (layerArray): ModuleList(
        (0-3): 4 x BasicBlock(
          (conv1): Conv2d(8, 1, kernel_size=(3, 3), stride=(1, 1), padding=(1, 1), bias=False)
          (bn1): BatchNorm2d(1, eps=1e-05, momentum=0.1, affine=True, track_running_stats=True)
          (relu): ReLU(inplace=True)
          (conv2): Conv2d(1, 8, kernel_size=(3, 3), stride=(1, 1), padding=(1, 1), bias=False)
          (bn2): BatchNorm2d(8, eps=1e-05, momentum=0.1, affine=True, track_running_stats=True)
        )
      )
    )
  )
  (layer2): Sequential(
    (0): PAIModulePyThread(
      (layerArray): ModuleList(
        (0-3): 4 x BasicBlock(
          (conv1): Conv2d(8, 1, kernel_size=(3, 3), stride=(2, 2), padding=(1, 1), bias=False)
          (bn1): BatchNorm2d(1, eps=1e-05, momentum=0.1, affine=True, track_running_stats=True)
          (relu): ReLU(inplace=True)
          (conv2): Conv2d(1, 16, kernel_size=(3, 3), stride=(1, 1), padding=(1, 1), bias=False)
          (bn2): BatchNorm2d(16, eps=1e-05, momentum=0.1, affine=True, track_running_stats=True)
          (downsample): Sequential(
            (0): Conv2d(1, 16, kernel_size=(1, 1), stride=(2, 2), bias=False)
            (1): BatchNorm2d(16, eps=1e-05, momentum=0.1, affine=True, track_running_stats=True)
          )
        )
      )
    )
    (1): PAIModulePyThread(
      (layerArray): ModuleList(
        (0-3): 4 x BasicBlock(
          (conv1): Conv2d(16, 1, kernel_size=(3, 3), stride=(1, 1), padding=(1, 1), bias=False)
          (bn1): BatchNorm2d(1, eps=1e-05, momentum=0.1, affine=True, track_running_stats=True)
          (relu): ReLU(inplace=True)
          (conv2): Conv2d(1, 16, kernel_size=(3, 3), stride=(1, 1), padding=(1, 1), bias=False)
          (bn2): BatchNorm2d(16, eps=1e-05, momentum=0.1, affine=True, track_running_stats=True)
        )
      )
    )
  )
  (layer3): Sequential(
    (0): PAIModulePyThread(
      (layerArray): ModuleList(
        (0-3): 4 x BasicBlock(
          (conv1): Conv2d(16, 1, kernel_size=(3, 3), stride=(2, 2), padding=(1, 1), bias=False)
          (bn1): BatchNorm2d(1, eps=1e-05, momentum=0.1, affine=True, track_running_stats=True)
          (relu): ReLU(inplace=True)
          (conv2): Conv2d(1, 32, kernel_size=(3, 3), stride=(1, 1), padding=(1, 1), bias=False)
          (bn2): BatchNorm2d(32, eps=1e-05, momentum=0.1, affine=True, track_running_stats=True)
          (downsample): Sequential(
            (0): Conv2d(1, 32, kernel_size=(1, 1), stride=(2, 2), bias=False)
            (1): BatchNorm2d(32, eps=1e-05, momentum=0.1, affine=True, track_running_stats=True)
          )
        )
      )
    )
    (1): PAIModulePyThread(
      (layerArray): ModuleList(
        (0-3): 4 x BasicBlock(
          (conv1): Conv2d(32, 1, kernel_size=(3, 3), stride=(1, 1), padding=(1, 1), bias=False)
          (bn1): BatchNorm2d(1, eps=1e-05, momentum=0.1, affine=True, track_running_stats=True)
          (relu): ReLU(inplace=True)
          (conv2): Conv2d(1, 32, kernel_size=(3, 3), stride=(1, 1), padding=(1, 1), bias=False)
          (bn2): BatchNorm2d(32, eps=1e-05, momentum=0.1, affine=True, track_running_stats=True)
        )
      )
    )
  )
  (layer4): Sequential(
    (0): PAIModulePyThread(
      (layerArray): ModuleList(
        (0-3): 4 x BasicBlock(
          (conv1): Conv2d(32, 1, kernel_size=(3, 3), stride=(2, 2), padding=(1, 1), bias=False)
          (bn1): BatchNorm2d(1, eps=1e-05, momentum=0.1, affine=True, track_running_stats=True)
          (relu): ReLU(inplace=True)
          (conv2): Conv2d(1, 64, kernel_size=(3, 3), stride=(1, 1), padding=(1, 1), bias=False)
          (bn2): BatchNorm2d(64, eps=1e-05, momentum=0.1, affine=True, track_running_stats=True)
          (downsample): Sequential(
            (0): Conv2d(1, 64, kernel_size=(1, 1), stride=(2, 2), bias=False)
            (1): BatchNorm2d(64, eps=1e-05, momentum=0.1, affine=True, track_running_stats=True)
          )
        )
      )
    )
    (1): PAIModulePyThread(
      (layerArray): ModuleList(
        (0-3): 4 x BasicBlock(
          (conv1): Conv2d(64, 1, kernel_size=(3, 3), stride=(1, 1), padding=(1, 1), bias=False)
          (bn1): BatchNorm2d(1, eps=1e-05, momentum=0.1, affine=True, track_running_stats=True)
          (relu): ReLU(inplace=True)
          (conv2): Conv2d(1, 64, kernel_size=(3, 3), stride=(1, 1), padding=(1, 1), bias=False)
          (bn2): BatchNorm2d(64, eps=1e-05, momentum=0.1, affine=True, track_running_stats=True)
        )
      )
    )
  )
  (avgpool): AdaptiveAvgPool2d(output_size=(1, 1))
  (fc): PAIModulePyThread(
    (layerArray): ModuleList(
      (0-3): 4 x Linear(in_features=64, out_features=1000, bias=True)
    )
  )
)
Training the model after pruning

---------------Epoch number: 0 ---Train accuracy: 37.448581560283685 ----Test accuracy: 52.361702127659576 --------------
…
