cuda
starting main call
ResNet(
  (conv1): PAIModulePyThread(
    (layerArray): ModuleList(
      (0-3): 4 x PBSequential(
        (model): Sequential(
          (0): Conv2d(3, 64, kernel_size=(7, 7), stride=(2, 2), padding=(3, 3), bias=False)
          (1): BatchNorm2d(64, eps=1e-05, momentum=0.1, affine=True, track_running_stats=True)
        )
      )
    )
  )
  (relu): ReLU(inplace=True)
  (maxpool): MaxPool2d(kernel_size=3, stride=2, padding=1, dilation=1, ceil_mode=False)
  (layer1): Sequential(
    (0): PAIModulePyThread(
      (layerArray): ModuleList(
        (0-3): 4 x BasicBlock(
          (conv1): Conv2d(64, 8, kernel_size=(3, 3), stride=(1, 1), padding=(1, 1), bias=False)
          (bn1): BatchNorm2d(8, eps=1e-05, momentum=0.1, affine=True, track_running_stats=True)
          (relu): ReLU(inplace=True)
          (conv2): Conv2d(8, 8, kernel_size=(3, 3), stride=(1, 1), padding=(1, 1), bias=False)
          (bn2): BatchNorm2d(8, eps=1e-05, momentum=0.1, affine=True, track_running_stats=True)
          (downsample): Sequential(
            (0): Conv2d(64, 8, kernel_size=(1, 1), stride=(1, 1), bias=False)
            (1): BatchNorm2d(8, eps=1e-05, momentum=0.1, affine=True, track_running_stats=True)
          )
        )
      )
    )
    (1): PAIModulePyThread(
      (layerArray): ModuleList(
        (0-3): 4 x BasicBlock(
          (conv1): Conv2d(8, 8, kernel_size=(3, 3), stride=(1, 1), padding=(1, 1), bias=False)
          (bn1): BatchNorm2d(8, eps=1e-05, momentum=0.1, affine=True, track_running_stats=True)
          (relu): ReLU(inplace=True)
          (conv2): Conv2d(8, 8, kernel_size=(3, 3), stride=(1, 1), padding=(1, 1), bias=False)
          (bn2): BatchNorm2d(8, eps=1e-05, momentum=0.1, affine=True, track_running_stats=True)
        )
      )
    )
  )
  (layer2): Sequential(
    (0): PAIModulePyThread(
      (layerArray): ModuleList(
        (0-3): 4 x BasicBlock(
          (conv1): Conv2d(8, 16, kernel_size=(3, 3), stride=(2, 2), padding=(1, 1), bias=False)
          (bn1): BatchNorm2d(16, eps=1e-05, momentum=0.1, affine=True, track_running_stats=True)
          (relu): ReLU(inplace=True)
          (conv2): Conv2d(16, 16, kernel_size=(3, 3), stride=(1, 1), padding=(1, 1), bias=False)
          (bn2): BatchNorm2d(16, eps=1e-05, momentum=0.1, affine=True, track_running_stats=True)
          (downsample): Sequential(
            (0): Conv2d(8, 16, kernel_size=(1, 1), stride=(2, 2), bias=False)
            (1): BatchNorm2d(16, eps=1e-05, momentum=0.1, affine=True, track_running_stats=True)
          )
        )
      )
    )
    (1): PAIModulePyThread(
      (layerArray): ModuleList(
        (0-3): 4 x BasicBlock(
          (conv1): Conv2d(16, 16, kernel_size=(3, 3), stride=(1, 1), padding=(1, 1), bias=False)
          (bn1): BatchNorm2d(16, eps=1e-05, momentum=0.1, affine=True, track_running_stats=True)
          (relu): ReLU(inplace=True)
          (conv2): Conv2d(16, 16, kernel_size=(3, 3), stride=(1, 1), padding=(1, 1), bias=False)
          (bn2): BatchNorm2d(16, eps=1e-05, momentum=0.1, affine=True, track_running_stats=True)
        )
      )
    )
  )
  (layer3): Sequential(
    (0): PAIModulePyThread(
      (layerArray): ModuleList(
        (0-3): 4 x BasicBlock(
          (conv1): Conv2d(16, 32, kernel_size=(3, 3), stride=(2, 2), padding=(1, 1), bias=False)
          (bn1): BatchNorm2d(32, eps=1e-05, momentum=0.1, affine=True, track_running_stats=True)
          (relu): ReLU(inplace=True)
          (conv2): Conv2d(32, 32, kernel_size=(3, 3), stride=(1, 1), padding=(1, 1), bias=False)
          (bn2): BatchNorm2d(32, eps=1e-05, momentum=0.1, affine=True, track_running_stats=True)
          (downsample): Sequential(
            (0): Conv2d(16, 32, kernel_size=(1, 1), stride=(2, 2), bias=False)
            (1): BatchNorm2d(32, eps=1e-05, momentum=0.1, affine=True, track_running_stats=True)
          )
        )
      )
    )
    (1): PAIModulePyThread(
      (layerArray): ModuleList(
        (0-3): 4 x BasicBlock(
          (conv1): Conv2d(32, 32, kernel_size=(3, 3), stride=(1, 1), padding=(1, 1), bias=False)
          (bn1): BatchNorm2d(32, eps=1e-05, momentum=0.1, affine=True, track_running_stats=True)
          (relu): ReLU(inplace=True)
          (conv2): Conv2d(32, 32, kernel_size=(3, 3), stride=(1, 1), padding=(1, 1), bias=False)
          (bn2): BatchNorm2d(32, eps=1e-05, momentum=0.1, affine=True, track_running_stats=True)
        )
      )
    )
  )
  (layer4): Sequential(
    (0): PAIModulePyThread(
      (layerArray): ModuleList(
        (0-3): 4 x BasicBlock(
          (conv1): Conv2d(32, 64, kernel_size=(3, 3), stride=(2, 2), padding=(1, 1), bias=False)
          (bn1): BatchNorm2d(64, eps=1e-05, momentum=0.1, affine=True, track_running_stats=True)
          (relu): ReLU(inplace=True)
          (conv2): Conv2d(64, 64, kernel_size=(3, 3), stride=(1, 1), padding=(1, 1), bias=False)
          (bn2): BatchNorm2d(64, eps=1e-05, momentum=0.1, affine=True, track_running_stats=True)
          (downsample): Sequential(
            (0): Conv2d(32, 64, kernel_size=(1, 1), stride=(2, 2), bias=False)
            (1): BatchNorm2d(64, eps=1e-05, momentum=0.1, affine=True, track_running_stats=True)
          )
        )
      )
    )
    (1): PAIModulePyThread(
      (layerArray): ModuleList(
        (0-3): 4 x BasicBlock(
          (conv1): Conv2d(64, 64, kernel_size=(3, 3), stride=(1, 1), padding=(1, 1), bias=False)
          (bn1): BatchNorm2d(64, eps=1e-05, momentum=0.1, affine=True, track_running_stats=True)
          (relu): ReLU(inplace=True)
          (conv2): Conv2d(64, 64, kernel_size=(3, 3), stride=(1, 1), padding=(1, 1), bias=False)
          (bn2): BatchNorm2d(64, eps=1e-05, momentum=0.1, affine=True, track_running_stats=True)
        )
      )
    )
  )
  (avgpool): AdaptiveAvgPool2d(output_size=(1, 1))
  (fc): PAIModulePyThread(
    (layerArray): ModuleList(
      (0-3): 4 x Linear(in_features=64, out_features=1000, bias=True)
    )
  )
)
layer1.0.layerArray.0.conv1
layer1.0.layerArray.1.conv1
layer1.0.layerArray.2.conv1
layer1.0.layerArray.3.conv1
layer1.1.layerArray.0.conv1
…
selected  UNIMP indices  [[7], [1], [0], [3], [0], [2], [1], [6], [12, 14], [12, 11], [7, 13], [2, 8], [9, 7], [9, 13], [2, 1], [1, 0], [25, 22, 14, 31], [7, 19, 13, 29], [0, 26, 3, 5], [14, 9, 23, 10], [22, 29, 7, 16], [31, 15, 18, 16], [26, 30, 29, 25], [21, 19, 10, 12], [45, 21, 28, 22, 41, 57, 1, 59], [40, 14, 38, 25, 9, 32, 41, 51], [59, 53, 20, 15, 29, 40, 21, 45], [31, 41, 19, 45, 32, 34, 12, 24], [22, 28, 33, 35, 25, 3, 30, 60], [0, 8, 41, 36, 21, 10, 25, 38], [19, 25, 26, 46, 0, 20, 59, 45], [59, 39, 26, 1, 18, 3, 7, 61]]
The length of indices is  32
7
7
7
7
7
7
7
7
14
14
14
14
14
14
14
14
28
28
28
28
28
28
28
28
56
56
56
56
56
56
56
56
ResNet(
  (conv1): PAIModulePyThread(
    (layerArray): ModuleList(
      (0-3): 4 x PBSequential(
        (model): Sequential(
          (0): Conv2d(3, 64, kernel_size=(7, 7), stride=(2, 2), padding=(3, 3), bias=False)
          (1): BatchNorm2d(64, eps=1e-05, momentum=0.1, affine=True, track_running_stats=True)
        )
      )
    )
  )
  (relu): ReLU(inplace=True)
  (maxpool): MaxPool2d(kernel_size=3, stride=2, padding=1, dilation=1, ceil_mode=False)
  (layer1): Sequential(
    (0): PAIModulePyThread(
      (layerArray): ModuleList(
        (0-3): 4 x BasicBlock(
          (conv1): Conv2d(64, 7, kernel_size=(3, 3), stride=(1, 1), padding=(1, 1), bias=False)
          (bn1): BatchNorm2d(7, eps=1e-05, momentum=0.1, affine=True, track_running_stats=True)
          (relu): ReLU(inplace=True)
          (conv2): Conv2d(7, 8, kernel_size=(3, 3), stride=(1, 1), padding=(1, 1), bias=False)
          (bn2): BatchNorm2d(8, eps=1e-05, momentum=0.1, affine=True, track_running_stats=True)
          (downsample): Sequential(
            (0): Conv2d(7, 8, kernel_size=(1, 1), stride=(1, 1), bias=False)
            (1): BatchNorm2d(8, eps=1e-05, momentum=0.1, affine=True, track_running_stats=True)
          )
        )
      )
    )
    (1): PAIModulePyThread(
      (layerArray): ModuleList(
        (0-3): 4 x BasicBlock(
          (conv1): Conv2d(8, 7, kernel_size=(3, 3), stride=(1, 1), padding=(1, 1), bias=False)
          (bn1): BatchNorm2d(7, eps=1e-05, momentum=0.1, affine=True, track_running_stats=True)
          (relu): ReLU(inplace=True)
          (conv2): Conv2d(7, 8, kernel_size=(3, 3), stride=(1, 1), padding=(1, 1), bias=False)
          (bn2): BatchNorm2d(8, eps=1e-05, momentum=0.1, affine=True, track_running_stats=True)
        )
      )
    )
  )
  (layer2): Sequential(
    (0): PAIModulePyThread(
      (layerArray): ModuleList(
        (0-3): 4 x BasicBlock(
          (conv1): Conv2d(8, 14, kernel_size=(3, 3), stride=(2, 2), padding=(1, 1), bias=False)
          (bn1): BatchNorm2d(14, eps=1e-05, momentum=0.1, affine=True, track_running_stats=True)
          (relu): ReLU(inplace=True)
          (conv2): Conv2d(14, 16, kernel_size=(3, 3), stride=(1, 1), padding=(1, 1), bias=False)
          (bn2): BatchNorm2d(16, eps=1e-05, momentum=0.1, affine=True, track_running_stats=True)
          (downsample): Sequential(
            (0): Conv2d(14, 16, kernel_size=(1, 1), stride=(2, 2), bias=False)
            (1): BatchNorm2d(16, eps=1e-05, momentum=0.1, affine=True, track_running_stats=True)
          )
        )
      )
    )
    (1): PAIModulePyThread(
      (layerArray): ModuleList(
        (0-3): 4 x BasicBlock(
          (conv1): Conv2d(16, 14, kernel_size=(3, 3), stride=(1, 1), padding=(1, 1), bias=False)
          (bn1): BatchNorm2d(14, eps=1e-05, momentum=0.1, affine=True, track_running_stats=True)
          (relu): ReLU(inplace=True)
          (conv2): Conv2d(14, 16, kernel_size=(3, 3), stride=(1, 1), padding=(1, 1), bias=False)
          (bn2): BatchNorm2d(16, eps=1e-05, momentum=0.1, affine=True, track_running_stats=True)
        )
      )
    )
  )
  (layer3): Sequential(
    (0): PAIModulePyThread(
      (layerArray): ModuleList(
        (0-3): 4 x BasicBlock(
          (conv1): Conv2d(16, 28, kernel_size=(3, 3), stride=(2, 2), padding=(1, 1), bias=False)
          (bn1): BatchNorm2d(28, eps=1e-05, momentum=0.1, affine=True, track_running_stats=True)
          (relu): ReLU(inplace=True)
          (conv2): Conv2d(28, 32, kernel_size=(3, 3), stride=(1, 1), padding=(1, 1), bias=False)
          (bn2): BatchNorm2d(32, eps=1e-05, momentum=0.1, affine=True, track_running_stats=True)
          (downsample): Sequential(
            (0): Conv2d(28, 32, kernel_size=(1, 1), stride=(2, 2), bias=False)
            (1): BatchNorm2d(32, eps=1e-05, momentum=0.1, affine=True, track_running_stats=True)
          )
        )
      )
    )
    (1): PAIModulePyThread(
      (layerArray): ModuleList(
        (0-3): 4 x BasicBlock(
          (conv1): Conv2d(32, 28, kernel_size=(3, 3), stride=(1, 1), padding=(1, 1), bias=False)
          (bn1): BatchNorm2d(28, eps=1e-05, momentum=0.1, affine=True, track_running_stats=True)
          (relu): ReLU(inplace=True)
          (conv2): Conv2d(28, 32, kernel_size=(3, 3), stride=(1, 1), padding=(1, 1), bias=False)
          (bn2): BatchNorm2d(32, eps=1e-05, momentum=0.1, affine=True, track_running_stats=True)
        )
      )
    )
  )
  (layer4): Sequential(
    (0): PAIModulePyThread(
      (layerArray): ModuleList(
        (0-3): 4 x BasicBlock(
          (conv1): Conv2d(32, 56, kernel_size=(3, 3), stride=(2, 2), padding=(1, 1), bias=False)
          (bn1): BatchNorm2d(56, eps=1e-05, momentum=0.1, affine=True, track_running_stats=True)
          (relu): ReLU(inplace=True)
          (conv2): Conv2d(56, 64, kernel_size=(3, 3), stride=(1, 1), padding=(1, 1), bias=False)
          (bn2): BatchNorm2d(64, eps=1e-05, momentum=0.1, affine=True, track_running_stats=True)
          (downsample): Sequential(
            (0): Conv2d(56, 64, kernel_size=(1, 1), stride=(2, 2), bias=False)
            (1): BatchNorm2d(64, eps=1e-05, momentum=0.1, affine=True, track_running_stats=True)
          )
        )
      )
    )
    (1): PAIModulePyThread(
      (layerArray): ModuleList(
        (0-3): 4 x BasicBlock(
          (conv1): Conv2d(64, 56, kernel_size=(3, 3), stride=(1, 1), padding=(1, 1), bias=False)
          (bn1): BatchNorm2d(56, eps=1e-05, momentum=0.1, affine=True, track_running_stats=True)
          (relu): ReLU(inplace=True)
          (conv2): Conv2d(56, 64, kernel_size=(3, 3), stride=(1, 1), padding=(1, 1), bias=False)
          (bn2): BatchNorm2d(64, eps=1e-05, momentum=0.1, affine=True, track_running_stats=True)
        )
      )
    )
  )
  (avgpool): AdaptiveAvgPool2d(output_size=(1, 1))
  (fc): PAIModulePyThread(
    (layerArray): ModuleList(
      (0-3): 4 x Linear(in_features=64, out_features=1000, bias=True)
    )
  )
)
Training the model after pruning
/usr/lib/python3/dist-packages/requests/__init__.py:89: RequestsDependencyWarning: urllib3 (1.26.12) or chardet (3.0.4) doesn't match a supported version!
…
selected  UNIMP indices  [[2], [0], [5], [5], [2], [2], [2], [5], [2, 10], [9, 12], [12, 1], [13, 0], [0, 4], [8, 10], [12, 11], [3, 13], [11, 18, 21, 3], [0, 24, 1, 2], [20, 25, 10, 3], [23, 2, 27, 20], [3, 8, 14, 5], [13, 5, 8, 23], [26, 0, 16, 8], [22, 5, 2, 20], [18, 55, 2, 54, 50, 5, 39, 47], [0, 39, 33, 16, 36, 35, 51, 6], [55, 22, 4, 7, 31, 14, 53, 24], [24, 23, 28, 55, 45, 52, 54, 17], [41, 5, 0, 53, 46, 4, 51, 52], [13, 26, 51, 6, 23, 38, 29, 22], [25, 36, 8, 46, 32, 9, 5, 41], [35, 23, 1, 27, 34, 21, 14, 48]]
The length of indices is  32
6
6
6
6
6
6
6
6
12
12
12
12
12
12
12
12
24
24
24
24
24
24
24
24
48
48
48
48
48
48
48
48
ResNet(
  (conv1): PAIModulePyThread(
    (layerArray): ModuleList(
      (0-3): 4 x PBSequential(
        (model): Sequential(
          (0): Conv2d(3, 64, kernel_size=(7, 7), stride=(2, 2), padding=(3, 3), bias=False)
          (1): BatchNorm2d(64, eps=1e-05, momentum=0.1, affine=True, track_running_stats=True)
        )
      )
    )
  )
  (relu): ReLU(inplace=True)
  (maxpool): MaxPool2d(kernel_size=3, stride=2, padding=1, dilation=1, ceil_mode=False)
  (layer1): Sequential(
    (0): PAIModulePyThread(
      (layerArray): ModuleList(
        (0-3): 4 x BasicBlock(
          (conv1): Conv2d(64, 6, kernel_size=(3, 3), stride=(1, 1), padding=(1, 1), bias=False)
          (bn1): BatchNorm2d(6, eps=1e-05, momentum=0.1, affine=True, track_running_stats=True)
          (relu): ReLU(inplace=True)
          (conv2): Conv2d(6, 8, kernel_size=(3, 3), stride=(1, 1), padding=(1, 1), bias=False)
          (bn2): BatchNorm2d(8, eps=1e-05, momentum=0.1, affine=True, track_running_stats=True)
          (downsample): Sequential(
            (0): Conv2d(6, 8, kernel_size=(1, 1), stride=(1, 1), bias=False)
            (1): BatchNorm2d(8, eps=1e-05, momentum=0.1, affine=True, track_running_stats=True)
          )
        )
      )
    )
    (1): PAIModulePyThread(
      (layerArray): ModuleList(
        (0-3): 4 x BasicBlock(
          (conv1): Conv2d(8, 6, kernel_size=(3, 3), stride=(1, 1), padding=(1, 1), bias=False)
          (bn1): BatchNorm2d(6, eps=1e-05, momentum=0.1, affine=True, track_running_stats=True)
          (relu): ReLU(inplace=True)
          (conv2): Conv2d(6, 8, kernel_size=(3, 3), stride=(1, 1), padding=(1, 1), bias=False)
          (bn2): BatchNorm2d(8, eps=1e-05, momentum=0.1, affine=True, track_running_stats=True)
        )
      )
    )
  )
  (layer2): Sequential(
    (0): PAIModulePyThread(
      (layerArray): ModuleList(
        (0-3): 4 x BasicBlock(
          (conv1): Conv2d(8, 12, kernel_size=(3, 3), stride=(2, 2), padding=(1, 1), bias=False)
          (bn1): BatchNorm2d(12, eps=1e-05, momentum=0.1, affine=True, track_running_stats=True)
          (relu): ReLU(inplace=True)
          (conv2): Conv2d(12, 16, kernel_size=(3, 3), stride=(1, 1), padding=(1, 1), bias=False)
          (bn2): BatchNorm2d(16, eps=1e-05, momentum=0.1, affine=True, track_running_stats=True)
          (downsample): Sequential(
            (0): Conv2d(12, 16, kernel_size=(1, 1), stride=(2, 2), bias=False)
            (1): BatchNorm2d(16, eps=1e-05, momentum=0.1, affine=True, track_running_stats=True)
          )
        )
      )
    )
    (1): PAIModulePyThread(
      (layerArray): ModuleList(
        (0-3): 4 x BasicBlock(
          (conv1): Conv2d(16, 12, kernel_size=(3, 3), stride=(1, 1), padding=(1, 1), bias=False)
          (bn1): BatchNorm2d(12, eps=1e-05, momentum=0.1, affine=True, track_running_stats=True)
          (relu): ReLU(inplace=True)
          (conv2): Conv2d(12, 16, kernel_size=(3, 3), stride=(1, 1), padding=(1, 1), bias=False)
          (bn2): BatchNorm2d(16, eps=1e-05, momentum=0.1, affine=True, track_running_stats=True)
        )
      )
    )
  )
  (layer3): Sequential(
    (0): PAIModulePyThread(
      (layerArray): ModuleList(
        (0-3): 4 x BasicBlock(
          (conv1): Conv2d(16, 24, kernel_size=(3, 3), stride=(2, 2), padding=(1, 1), bias=False)
          (bn1): BatchNorm2d(24, eps=1e-05, momentum=0.1, affine=True, track_running_stats=True)
          (relu): ReLU(inplace=True)
          (conv2): Conv2d(24, 32, kernel_size=(3, 3), stride=(1, 1), padding=(1, 1), bias=False)
          (bn2): BatchNorm2d(32, eps=1e-05, momentum=0.1, affine=True, track_running_stats=True)
          (downsample): Sequential(
            (0): Conv2d(24, 32, kernel_size=(1, 1), stride=(2, 2), bias=False)
            (1): BatchNorm2d(32, eps=1e-05, momentum=0.1, affine=True, track_running_stats=True)
          )
        )
      )
    )
    (1): PAIModulePyThread(
      (layerArray): ModuleList(
        (0-3): 4 x BasicBlock(
          (conv1): Conv2d(32, 24, kernel_size=(3, 3), stride=(1, 1), padding=(1, 1), bias=False)
          (bn1): BatchNorm2d(24, eps=1e-05, momentum=0.1, affine=True, track_running_stats=True)
          (relu): ReLU(inplace=True)
          (conv2): Conv2d(24, 32, kernel_size=(3, 3), stride=(1, 1), padding=(1, 1), bias=False)
          (bn2): BatchNorm2d(32, eps=1e-05, momentum=0.1, affine=True, track_running_stats=True)
        )
      )
    )
  )
  (layer4): Sequential(
    (0): PAIModulePyThread(
      (layerArray): ModuleList(
        (0-3): 4 x BasicBlock(
          (conv1): Conv2d(32, 48, kernel_size=(3, 3), stride=(2, 2), padding=(1, 1), bias=False)
          (bn1): BatchNorm2d(48, eps=1e-05, momentum=0.1, affine=True, track_running_stats=True)
          (relu): ReLU(inplace=True)
          (conv2): Conv2d(48, 64, kernel_size=(3, 3), stride=(1, 1), padding=(1, 1), bias=False)
          (bn2): BatchNorm2d(64, eps=1e-05, momentum=0.1, affine=True, track_running_stats=True)
          (downsample): Sequential(
            (0): Conv2d(48, 64, kernel_size=(1, 1), stride=(2, 2), bias=False)
            (1): BatchNorm2d(64, eps=1e-05, momentum=0.1, affine=True, track_running_stats=True)
          )
        )
      )
    )
    (1): PAIModulePyThread(
      (layerArray): ModuleList(
        (0-3): 4 x BasicBlock(
          (conv1): Conv2d(64, 48, kernel_size=(3, 3), stride=(1, 1), padding=(1, 1), bias=False)
          (bn1): BatchNorm2d(48, eps=1e-05, momentum=0.1, affine=True, track_running_stats=True)
          (relu): ReLU(inplace=True)
          (conv2): Conv2d(48, 64, kernel_size=(3, 3), stride=(1, 1), padding=(1, 1), bias=False)
          (bn2): BatchNorm2d(64, eps=1e-05, momentum=0.1, affine=True, track_running_stats=True)
        )
      )
    )
  )
  (avgpool): AdaptiveAvgPool2d(output_size=(1, 1))
  (fc): PAIModulePyThread(
    (layerArray): ModuleList(
      (0-3): 4 x Linear(in_features=64, out_features=1000, bias=True)
    )
  )
)
Training the model after pruning

---------------Epoch number: 0 ---Train accuracy: 80.06205673758865 ----Test accuracy: 81.95212765957447 --------------
…
selected  UNIMP indices  [[5], [2], [2], [0], [3], [5], [0], [2], [1, 0], [9, 1], [4, 8], [11, 0], [4, 2], [6, 5], [2, 9], [6, 10], [14, 6, 12, 5], [22, 23, 21, 17], [13, 8, 20, 15], [18, 8, 22, 17], [7, 1, 17, 4], [6, 10, 4, 11], [7, 0, 18, 22], [18, 5, 12, 10], [7, 10, 22, 11, 26, 3, 36, 14], [47, 19, 32, 29, 12, 2, 37, 40], [2, 31, 6, 29, 5, 12, 26, 40], [37, 17, 22, 1, 19, 15, 43, 5], [47, 0, 6, 12, 2, 9, 18, 5], [1, 14, 20, 27, 0, 29, 40, 18], [38, 16, 17, 9, 46, 18, 23, 47], [20, 17, 12, 24, 8, 40, 1, 47]]
The length of indices is  32
5
5
5
5
5
5
5
5
10
10
10
10
10
10
10
10
20
20
20
20
20
20
20
20
40
40
40
40
40
40
40
40
ResNet(
  (conv1): PAIModulePyThread(
    (layerArray): ModuleList(
      (0-3): 4 x PBSequential(
        (model): Sequential(
          (0): Conv2d(3, 64, kernel_size=(7, 7), stride=(2, 2), padding=(3, 3), bias=False)
          (1): BatchNorm2d(64, eps=1e-05, momentum=0.1, affine=True, track_running_stats=True)
        )
      )
    )
  )
  (relu): ReLU(inplace=True)
  (maxpool): MaxPool2d(kernel_size=3, stride=2, padding=1, dilation=1, ceil_mode=False)
  (layer1): Sequential(
    (0): PAIModulePyThread(
      (layerArray): ModuleList(
        (0-3): 4 x BasicBlock(
          (conv1): Conv2d(64, 5, kernel_size=(3, 3), stride=(1, 1), padding=(1, 1), bias=False)
          (bn1): BatchNorm2d(5, eps=1e-05, momentum=0.1, affine=True, track_running_stats=True)
          (relu): ReLU(inplace=True)
          (conv2): Conv2d(5, 8, kernel_size=(3, 3), stride=(1, 1), padding=(1, 1), bias=False)
          (bn2): BatchNorm2d(8, eps=1e-05, momentum=0.1, affine=True, track_running_stats=True)
          (downsample): Sequential(
            (0): Conv2d(5, 8, kernel_size=(1, 1), stride=(1, 1), bias=False)
            (1): BatchNorm2d(8, eps=1e-05, momentum=0.1, affine=True, track_running_stats=True)
          )
        )
      )
    )
    (1): PAIModulePyThread(
      (layerArray): ModuleList(
        (0-3): 4 x BasicBlock(
          (conv1): Conv2d(8, 5, kernel_size=(3, 3), stride=(1, 1), padding=(1, 1), bias=False)
          (bn1): BatchNorm2d(5, eps=1e-05, momentum=0.1, affine=True, track_running_stats=True)
          (relu): ReLU(inplace=True)
          (conv2): Conv2d(5, 8, kernel_size=(3, 3), stride=(1, 1), padding=(1, 1), bias=False)
          (bn2): BatchNorm2d(8, eps=1e-05, momentum=0.1, affine=True, track_running_stats=True)
        )
      )
    )
  )
  (layer2): Sequential(
    (0): PAIModulePyThread(
      (layerArray): ModuleList(
        (0-3): 4 x BasicBlock(
          (conv1): Conv2d(8, 10, kernel_size=(3, 3), stride=(2, 2), padding=(1, 1), bias=False)
          (bn1): BatchNorm2d(10, eps=1e-05, momentum=0.1, affine=True, track_running_stats=True)
          (relu): ReLU(inplace=True)
          (conv2): Conv2d(10, 16, kernel_size=(3, 3), stride=(1, 1), padding=(1, 1), bias=False)
          (bn2): BatchNorm2d(16, eps=1e-05, momentum=0.1, affine=True, track_running_stats=True)
          (downsample): Sequential(
            (0): Conv2d(10, 16, kernel_size=(1, 1), stride=(2, 2), bias=False)
            (1): BatchNorm2d(16, eps=1e-05, momentum=0.1, affine=True, track_running_stats=True)
          )
        )
      )
    )
    (1): PAIModulePyThread(
      (layerArray): ModuleList(
        (0-3): 4 x BasicBlock(
          (conv1): Conv2d(16, 10, kernel_size=(3, 3), stride=(1, 1), padding=(1, 1), bias=False)
          (bn1): BatchNorm2d(10, eps=1e-05, momentum=0.1, affine=True, track_running_stats=True)
          (relu): ReLU(inplace=True)
          (conv2): Conv2d(10, 16, kernel_size=(3, 3), stride=(1, 1), padding=(1, 1), bias=False)
          (bn2): BatchNorm2d(16, eps=1e-05, momentum=0.1, affine=True, track_running_stats=True)
        )
      )
    )
  )
  (layer3): Sequential(
    (0): PAIModulePyThread(
      (layerArray): ModuleList(
        (0-3): 4 x BasicBlock(
          (conv1): Conv2d(16, 20, kernel_size=(3, 3), stride=(2, 2), padding=(1, 1), bias=False)
          (bn1): BatchNorm2d(20, eps=1e-05, momentum=0.1, affine=True, track_running_stats=True)
          (relu): ReLU(inplace=True)
          (conv2): Conv2d(20, 32, kernel_size=(3, 3), stride=(1, 1), padding=(1, 1), bias=False)
          (bn2): BatchNorm2d(32, eps=1e-05, momentum=0.1, affine=True, track_running_stats=True)
          (downsample): Sequential(
            (0): Conv2d(20, 32, kernel_size=(1, 1), stride=(2, 2), bias=False)
            (1): BatchNorm2d(32, eps=1e-05, momentum=0.1, affine=True, track_running_stats=True)
          )
        )
      )
    )
    (1): PAIModulePyThread(
      (layerArray): ModuleList(
        (0-3): 4 x BasicBlock(
          (conv1): Conv2d(32, 20, kernel_size=(3, 3), stride=(1, 1), padding=(1, 1), bias=False)
          (bn1): BatchNorm2d(20, eps=1e-05, momentum=0.1, affine=True, track_running_stats=True)
          (relu): ReLU(inplace=True)
          (conv2): Conv2d(20, 32, kernel_size=(3, 3), stride=(1, 1), padding=(1, 1), bias=False)
          (bn2): BatchNorm2d(32, eps=1e-05, momentum=0.1, affine=True, track_running_stats=True)
        )
      )
    )
  )
  (layer4): Sequential(
    (0): PAIModulePyThread(
      (layerArray): ModuleList(
        (0-3): 4 x BasicBlock(
          (conv1): Conv2d(32, 40, kernel_size=(3, 3), stride=(2, 2), padding=(1, 1), bias=False)
          (bn1): BatchNorm2d(40, eps=1e-05, momentum=0.1, affine=True, track_running_stats=True)
          (relu): ReLU(inplace=True)
          (conv2): Conv2d(40, 64, kernel_size=(3, 3), stride=(1, 1), padding=(1, 1), bias=False)
          (bn2): BatchNorm2d(64, eps=1e-05, momentum=0.1, affine=True, track_running_stats=True)
          (downsample): Sequential(
            (0): Conv2d(40, 64, kernel_size=(1, 1), stride=(2, 2), bias=False)
            (1): BatchNorm2d(64, eps=1e-05, momentum=0.1, affine=True, track_running_stats=True)
          )
        )
      )
    )
    (1): PAIModulePyThread(
      (layerArray): ModuleList(
        (0-3): 4 x BasicBlock(
          (conv1): Conv2d(64, 40, kernel_size=(3, 3), stride=(1, 1), padding=(1, 1), bias=False)
          (bn1): BatchNorm2d(40, eps=1e-05, momentum=0.1, affine=True, track_running_stats=True)
          (relu): ReLU(inplace=True)
          (conv2): Conv2d(40, 64, kernel_size=(3, 3), stride=(1, 1), padding=(1, 1), bias=False)
          (bn2): BatchNorm2d(64, eps=1e-05, momentum=0.1, affine=True, track_running_stats=True)
        )
      )
    )
  )
  (avgpool): AdaptiveAvgPool2d(output_size=(1, 1))
  (fc): PAIModulePyThread(
    (layerArray): ModuleList(
      (0-3): 4 x Linear(in_features=64, out_features=1000, bias=True)
    )
  )
)
Training the model after pruning

---------------Epoch number: 0 ---Train accuracy: 76.3209219858156 ----Test accuracy: 79.27127659574468 --------------
…
selected  UNIMP indices  [[0], [0], [0], [2], [3], [3], [1], [3], [9, 0], [7, 1], [7, 0], [4, 5], [0, 3], [3, 4], [4, 9], [9, 8], [13, 7, 19, 15], [5, 6, 11, 12], [17, 11, 7, 0], [11, 8, 7, 0], [2, 14, 9, 12], [15, 3, 13, 19], [7, 10, 18, 5], [4, 15, 5, 6], [12, 22, 34, 26, 6, 20, 11, 1], [10, 6, 28, 37, 9, 0, 35, 32], [6, 22, 10, 37, 34, 35, 14, 39], [8, 25, 15, 22, 23, 39, 3, 6], [13, 3, 5, 37, 6, 17, 35, 25], [17, 22, 24, 34, 27, 18, 12, 11], [11, 30, 33, 23, 29, 20, 3, 38], [8, 4, 6, 0, 7, 2, 22, 18]]
The length of indices is  32
4
4
4
4
4
4
4
4
8
8
8
8
8
8
8
8
16
16
16
16
16
16
16
16
32
32
32
32
32
32
32
32
ResNet(
  (conv1): PAIModulePyThread(
    (layerArray): ModuleList(
      (0-3): 4 x PBSequential(
        (model): Sequential(
          (0): Conv2d(3, 64, kernel_size=(7, 7), stride=(2, 2), padding=(3, 3), bias=False)
          (1): BatchNorm2d(64, eps=1e-05, momentum=0.1, affine=True, track_running_stats=True)
        )
      )
    )
  )
  (relu): ReLU(inplace=True)
  (maxpool): MaxPool2d(kernel_size=3, stride=2, padding=1, dilation=1, ceil_mode=False)
  (layer1): Sequential(
    (0): PAIModulePyThread(
      (layerArray): ModuleList(
        (0-3): 4 x BasicBlock(
          (conv1): Conv2d(64, 4, kernel_size=(3, 3), stride=(1, 1), padding=(1, 1), bias=False)
          (bn1): BatchNorm2d(4, eps=1e-05, momentum=0.1, affine=True, track_running_stats=True)
          (relu): ReLU(inplace=True)
          (conv2): Conv2d(4, 8, kernel_size=(3, 3), stride=(1, 1), padding=(1, 1), bias=False)
          (bn2): BatchNorm2d(8, eps=1e-05, momentum=0.1, affine=True, track_running_stats=True)
          (downsample): Sequential(
            (0): Conv2d(4, 8, kernel_size=(1, 1), stride=(1, 1), bias=False)
            (1): BatchNorm2d(8, eps=1e-05, momentum=0.1, affine=True, track_running_stats=True)
          )
        )
      )
    )
    (1): PAIModulePyThread(
      (layerArray): ModuleList(
        (0-3): 4 x BasicBlock(
          (conv1): Conv2d(8, 4, kernel_size=(3, 3), stride=(1, 1), padding=(1, 1), bias=False)
          (bn1): BatchNorm2d(4, eps=1e-05, momentum=0.1, affine=True, track_running_stats=True)
          (relu): ReLU(inplace=True)
          (conv2): Conv2d(4, 8, kernel_size=(3, 3), stride=(1, 1), padding=(1, 1), bias=False)
          (bn2): BatchNorm2d(8, eps=1e-05, momentum=0.1, affine=True, track_running_stats=True)
        )
      )
    )
  )
  (layer2): Sequential(
    (0): PAIModulePyThread(
      (layerArray): ModuleList(
        (0-3): 4 x BasicBlock(
          (conv1): Conv2d(8, 8, kernel_size=(3, 3), stride=(2, 2), padding=(1, 1), bias=False)
          (bn1): BatchNorm2d(8, eps=1e-05, momentum=0.1, affine=True, track_running_stats=True)
          (relu): ReLU(inplace=True)
          (conv2): Conv2d(8, 16, kernel_size=(3, 3), stride=(1, 1), padding=(1, 1), bias=False)
          (bn2): BatchNorm2d(16, eps=1e-05, momentum=0.1, affine=True, track_running_stats=True)
          (downsample): Sequential(
            (0): Conv2d(8, 16, kernel_size=(1, 1), stride=(2, 2), bias=False)
            (1): BatchNorm2d(16, eps=1e-05, momentum=0.1, affine=True, track_running_stats=True)
          )
        )
      )
    )
    (1): PAIModulePyThread(
      (layerArray): ModuleList(
        (0-3): 4 x BasicBlock(
          (conv1): Conv2d(16, 8, kernel_size=(3, 3), stride=(1, 1), padding=(1, 1), bias=False)
          (bn1): BatchNorm2d(8, eps=1e-05, momentum=0.1, affine=True, track_running_stats=True)
          (relu): ReLU(inplace=True)
          (conv2): Conv2d(8, 16, kernel_size=(3, 3), stride=(1, 1), padding=(1, 1), bias=False)
          (bn2): BatchNorm2d(16, eps=1e-05, momentum=0.1, affine=True, track_running_stats=True)
        )
      )
    )
  )
  (layer3): Sequential(
    (0): PAIModulePyThread(
      (layerArray): ModuleList(
        (0-3): 4 x BasicBlock(
          (conv1): Conv2d(16, 16, kernel_size=(3, 3), stride=(2, 2), padding=(1, 1), bias=False)
          (bn1): BatchNorm2d(16, eps=1e-05, momentum=0.1, affine=True, track_running_stats=True)
          (relu): ReLU(inplace=True)
          (conv2): Conv2d(16, 32, kernel_size=(3, 3), stride=(1, 1), padding=(1, 1), bias=False)
          (bn2): BatchNorm2d(32, eps=1e-05, momentum=0.1, affine=True, track_running_stats=True)
          (downsample): Sequential(
            (0): Conv2d(16, 32, kernel_size=(1, 1), stride=(2, 2), bias=False)
            (1): BatchNorm2d(32, eps=1e-05, momentum=0.1, affine=True, track_running_stats=True)
          )
        )
      )
    )
    (1): PAIModulePyThread(
      (layerArray): ModuleList(
        (0-3): 4 x BasicBlock(
          (conv1): Conv2d(32, 16, kernel_size=(3, 3), stride=(1, 1), padding=(1, 1), bias=False)
          (bn1): BatchNorm2d(16, eps=1e-05, momentum=0.1, affine=True, track_running_stats=True)
          (relu): ReLU(inplace=True)
          (conv2): Conv2d(16, 32, kernel_size=(3, 3), stride=(1, 1), padding=(1, 1), bias=False)
          (bn2): BatchNorm2d(32, eps=1e-05, momentum=0.1, affine=True, track_running_stats=True)
        )
      )
    )
  )
  (layer4): Sequential(
    (0): PAIModulePyThread(
      (layerArray): ModuleList(
        (0-3): 4 x BasicBlock(
          (conv1): Conv2d(32, 32, kernel_size=(3, 3), stride=(2, 2), padding=(1, 1), bias=False)
          (bn1): BatchNorm2d(32, eps=1e-05, momentum=0.1, affine=True, track_running_stats=True)
          (relu): ReLU(inplace=True)
          (conv2): Conv2d(32, 64, kernel_size=(3, 3), stride=(1, 1), padding=(1, 1), bias=False)
          (bn2): BatchNorm2d(64, eps=1e-05, momentum=0.1, affine=True, track_running_stats=True)
          (downsample): Sequential(
            (0): Conv2d(32, 64, kernel_size=(1, 1), stride=(2, 2), bias=False)
            (1): BatchNorm2d(64, eps=1e-05, momentum=0.1, affine=True, track_running_stats=True)
          )
        )
      )
    )
    (1): PAIModulePyThread(
      (layerArray): ModuleList(
        (0-3): 4 x BasicBlock(
          (conv1): Conv2d(64, 32, kernel_size=(3, 3), stride=(1, 1), padding=(1, 1), bias=False)
          (bn1): BatchNorm2d(32, eps=1e-05, momentum=0.1, affine=True, track_running_stats=True)
          (relu): ReLU(inplace=True)
          (conv2): Conv2d(32, 64, kernel_size=(3, 3), stride=(1, 1), padding=(1, 1), bias=False)
          (bn2): BatchNorm2d(64, eps=1e-05, momentum=0.1, affine=True, track_running_stats=True)
        )
      )
    )
  )
  (avgpool): AdaptiveAvgPool2d(output_size=(1, 1))
  (fc): PAIModulePyThread(
    (layerArray): ModuleList(
      (0-3): 4 x Linear(in_features=64, out_features=1000, bias=True)
    )
  )
)
Training the model after pruning

---------------Epoch number: 0 ---Train accuracy: 68.92641843971631 ----Test accuracy: 72.98404255319149 --------------
…
selected  UNIMP indices  [[0], [1], [2], [3], [1], [3], [1], [0], [1, 2], [2, 6], [5, 7], [1, 6], [1, 5], [2, 4], [3, 2], [0, 3], [10, 11, 4, 2], [13, 10, 6, 1], [11, 2, 1, 13], [12, 9, 13, 15], [10, 0, 4, 13], [13, 8, 10, 0], [11, 13, 1, 10], [6, 9, 12, 2], [3, 16, 8, 12, 31, 30, 25, 4], [11, 17, 8, 20, 6, 16, 22, 19], [17, 6, 22, 29, 26, 1, 11, 9], [11, 28, 13, 3, 25, 1, 5, 10], [25, 8, 18, 21, 16, 24, 15, 3], [26, 2, 4, 3, 11, 8, 27, 12], [2, 28, 14, 25, 12, 18, 11, 10], [21, 16, 17, 10, 6, 19, 27, 12]]
The length of indices is  32
3
3
3
3
3
3
3
3
6
6
6
6
6
6
6
6
12
12
12
12
12
12
12
12
24
24
24
24
24
24
24
24
ResNet(
  (conv1): PAIModulePyThread(
    (layerArray): ModuleList(
      (0-3): 4 x PBSequential(
        (model): Sequential(
          (0): Conv2d(3, 64, kernel_size=(7, 7), stride=(2, 2), padding=(3, 3), bias=False)
          (1): BatchNorm2d(64, eps=1e-05, momentum=0.1, affine=True, track_running_stats=True)
        )
      )
    )
  )
  (relu): ReLU(inplace=True)
  (maxpool): MaxPool2d(kernel_size=3, stride=2, padding=1, dilation=1, ceil_mode=False)
  (layer1): Sequential(
    (0): PAIModulePyThread(
      (layerArray): ModuleList(
        (0-3): 4 x BasicBlock(
          (conv1): Conv2d(64, 3, kernel_size=(3, 3), stride=(1, 1), padding=(1, 1), bias=False)
          (bn1): BatchNorm2d(3, eps=1e-05, momentum=0.1, affine=True, track_running_stats=True)
          (relu): ReLU(inplace=True)
          (conv2): Conv2d(3, 8, kernel_size=(3, 3), stride=(1, 1), padding=(1, 1), bias=False)
          (bn2): BatchNorm2d(8, eps=1e-05, momentum=0.1, affine=True, track_running_stats=True)
          (downsample): Sequential(
            (0): Conv2d(3, 8, kernel_size=(1, 1), stride=(1, 1), bias=False)
            (1): BatchNorm2d(8, eps=1e-05, momentum=0.1, affine=True, track_running_stats=True)
          )
        )
      )
    )
    (1): PAIModulePyThread(
      (layerArray): ModuleList(
        (0-3): 4 x BasicBlock(
          (conv1): Conv2d(8, 3, kernel_size=(3, 3), stride=(1, 1), padding=(1, 1), bias=False)
          (bn1): BatchNorm2d(3, eps=1e-05, momentum=0.1, affine=True, track_running_stats=True)
          (relu): ReLU(inplace=True)
          (conv2): Conv2d(3, 8, kernel_size=(3, 3), stride=(1, 1), padding=(1, 1), bias=False)
          (bn2): BatchNorm2d(8, eps=1e-05, momentum=0.1, affine=True, track_running_stats=True)
        )
      )
    )
  )
  (layer2): Sequential(
    (0): PAIModulePyThread(
      (layerArray): ModuleList(
        (0-3): 4 x BasicBlock(
          (conv1): Conv2d(8, 6, kernel_size=(3, 3), stride=(2, 2), padding=(1, 1), bias=False)
          (bn1): BatchNorm2d(6, eps=1e-05, momentum=0.1, affine=True, track_running_stats=True)
          (relu): ReLU(inplace=True)
          (conv2): Conv2d(6, 16, kernel_size=(3, 3), stride=(1, 1), padding=(1, 1), bias=False)
          (bn2): BatchNorm2d(16, eps=1e-05, momentum=0.1, affine=True, track_running_stats=True)
          (downsample): Sequential(
            (0): Conv2d(6, 16, kernel_size=(1, 1), stride=(2, 2), bias=False)
            (1): BatchNorm2d(16, eps=1e-05, momentum=0.1, affine=True, track_running_stats=True)
          )
        )
      )
    )
    (1): PAIModulePyThread(
      (layerArray): ModuleList(
        (0-3): 4 x BasicBlock(
          (conv1): Conv2d(16, 6, kernel_size=(3, 3), stride=(1, 1), padding=(1, 1), bias=False)
          (bn1): BatchNorm2d(6, eps=1e-05, momentum=0.1, affine=True, track_running_stats=True)
          (relu): ReLU(inplace=True)
          (conv2): Conv2d(6, 16, kernel_size=(3, 3), stride=(1, 1), padding=(1, 1), bias=False)
          (bn2): BatchNorm2d(16, eps=1e-05, momentum=0.1, affine=True, track_running_stats=True)
        )
      )
    )
  )
  (layer3): Sequential(
    (0): PAIModulePyThread(
      (layerArray): ModuleList(
        (0-3): 4 x BasicBlock(
          (conv1): Conv2d(16, 12, kernel_size=(3, 3), stride=(2, 2), padding=(1, 1), bias=False)
          (bn1): BatchNorm2d(12, eps=1e-05, momentum=0.1, affine=True, track_running_stats=True)
          (relu): ReLU(inplace=True)
          (conv2): Conv2d(12, 32, kernel_size=(3, 3), stride=(1, 1), padding=(1, 1), bias=False)
          (bn2): BatchNorm2d(32, eps=1e-05, momentum=0.1, affine=True, track_running_stats=True)
          (downsample): Sequential(
            (0): Conv2d(12, 32, kernel_size=(1, 1), stride=(2, 2), bias=False)
            (1): BatchNorm2d(32, eps=1e-05, momentum=0.1, affine=True, track_running_stats=True)
          )
        )
      )
    )
    (1): PAIModulePyThread(
      (layerArray): ModuleList(
        (0-3): 4 x BasicBlock(
          (conv1): Conv2d(32, 12, kernel_size=(3, 3), stride=(1, 1), padding=(1, 1), bias=False)
          (bn1): BatchNorm2d(12, eps=1e-05, momentum=0.1, affine=True, track_running_stats=True)
          (relu): ReLU(inplace=True)
          (conv2): Conv2d(12, 32, kernel_size=(3, 3), stride=(1, 1), padding=(1, 1), bias=False)
          (bn2): BatchNorm2d(32, eps=1e-05, momentum=0.1, affine=True, track_running_stats=True)
        )
      )
    )
  )
  (layer4): Sequential(
    (0): PAIModulePyThread(
      (layerArray): ModuleList(
        (0-3): 4 x BasicBlock(
          (conv1): Conv2d(32, 24, kernel_size=(3, 3), stride=(2, 2), padding=(1, 1), bias=False)
          (bn1): BatchNorm2d(24, eps=1e-05, momentum=0.1, affine=True, track_running_stats=True)
          (relu): ReLU(inplace=True)
          (conv2): Conv2d(24, 64, kernel_size=(3, 3), stride=(1, 1), padding=(1, 1), bias=False)
          (bn2): BatchNorm2d(64, eps=1e-05, momentum=0.1, affine=True, track_running_stats=True)
          (downsample): Sequential(
            (0): Conv2d(24, 64, kernel_size=(1, 1), stride=(2, 2), bias=False)
            (1): BatchNorm2d(64, eps=1e-05, momentum=0.1, affine=True, track_running_stats=True)
          )
        )
      )
    )
    (1): PAIModulePyThread(
      (layerArray): ModuleList(
        (0-3): 4 x BasicBlock(
          (conv1): Conv2d(64, 24, kernel_size=(3, 3), stride=(1, 1), padding=(1, 1), bias=False)
          (bn1): BatchNorm2d(24, eps=1e-05, momentum=0.1, affine=True, track_running_stats=True)
          (relu): ReLU(inplace=True)
          (conv2): Conv2d(24, 64, kernel_size=(3, 3), stride=(1, 1), padding=(1, 1), bias=False)
          (bn2): BatchNorm2d(64, eps=1e-05, momentum=0.1, affine=True, track_running_stats=True)
        )
      )
    )
  )
  (avgpool): AdaptiveAvgPool2d(output_size=(1, 1))
  (fc): PAIModulePyThread(
    (layerArray): ModuleList(
      (0-3): 4 x Linear(in_features=64, out_features=1000, bias=True)
    )
  )
)
Training the model after pruning

---------------Epoch number: 0 ---Train accuracy: 53.593971631205676 ----Test accuracy: 61.452127659574465 --------------
…
selected  UNIMP indices  [[0], [0], [1], [0], [0], [0], [0], [2], [1, 5], [2, 5], [0, 5], [3, 1], [4, 3], [1, 0], [3, 2], [0, 4], [10, 4, 5, 7], [7, 8, 1, 2], [1, 8, 0, 10], [1, 4, 5, 6], [0, 9, 11, 3], [9, 0, 11, 8], [0, 6, 3, 1], [3, 1, 2, 7], [8, 9, 2, 6, 18, 4, 7, 5], [14, 22, 1, 11, 17, 10, 3, 4], [0, 7, 20, 14, 15, 5, 18, 6], [23, 3, 12, 9, 19, 5, 10, 7], [15, 11, 17, 1, 21, 16, 7, 5], [13, 19, 0, 7, 21, 5, 23, 20], [17, 15, 19, 5, 14, 10, 6, 7], [14, 6, 4, 13, 17, 10, 23, 21]]
The length of indices is  32
2
2
2
2
2
2
2
2
4
4
4
4
4
4
4
4
8
8
8
8
8
8
8
8
16
16
16
16
16
16
16
16
ResNet(
  (conv1): PAIModulePyThread(
    (layerArray): ModuleList(
      (0-3): 4 x PBSequential(
        (model): Sequential(
          (0): Conv2d(3, 64, kernel_size=(7, 7), stride=(2, 2), padding=(3, 3), bias=False)
          (1): BatchNorm2d(64, eps=1e-05, momentum=0.1, affine=True, track_running_stats=True)
        )
      )
    )
  )
  (relu): ReLU(inplace=True)
  (maxpool): MaxPool2d(kernel_size=3, stride=2, padding=1, dilation=1, ceil_mode=False)
  (layer1): Sequential(
    (0): PAIModulePyThread(
      (layerArray): ModuleList(
        (0-3): 4 x BasicBlock(
          (conv1): Conv2d(64, 2, kernel_size=(3, 3), stride=(1, 1), padding=(1, 1), bias=False)
          (bn1): BatchNorm2d(2, eps=1e-05, momentum=0.1, affine=True, track_running_stats=True)
          (relu): ReLU(inplace=True)
          (conv2): Conv2d(2, 8, kernel_size=(3, 3), stride=(1, 1), padding=(1, 1), bias=False)
          (bn2): BatchNorm2d(8, eps=1e-05, momentum=0.1, affine=True, track_running_stats=True)
          (downsample): Sequential(
            (0): Conv2d(2, 8, kernel_size=(1, 1), stride=(1, 1), bias=False)
            (1): BatchNorm2d(8, eps=1e-05, momentum=0.1, affine=True, track_running_stats=True)
          )
        )
      )
    )
    (1): PAIModulePyThread(
      (layerArray): ModuleList(
        (0-3): 4 x BasicBlock(
          (conv1): Conv2d(8, 2, kernel_size=(3, 3), stride=(1, 1), padding=(1, 1), bias=False)
          (bn1): BatchNorm2d(2, eps=1e-05, momentum=0.1, affine=True, track_running_stats=True)
          (relu): ReLU(inplace=True)
          (conv2): Conv2d(2, 8, kernel_size=(3, 3), stride=(1, 1), padding=(1, 1), bias=False)
          (bn2): BatchNorm2d(8, eps=1e-05, momentum=0.1, affine=True, track_running_stats=True)
        )
      )
    )
  )
  (layer2): Sequential(
    (0): PAIModulePyThread(
      (layerArray): ModuleList(
        (0-3): 4 x BasicBlock(
          (conv1): Conv2d(8, 4, kernel_size=(3, 3), stride=(2, 2), padding=(1, 1), bias=False)
          (bn1): BatchNorm2d(4, eps=1e-05, momentum=0.1, affine=True, track_running_stats=True)
          (relu): ReLU(inplace=True)
          (conv2): Conv2d(4, 16, kernel_size=(3, 3), stride=(1, 1), padding=(1, 1), bias=False)
          (bn2): BatchNorm2d(16, eps=1e-05, momentum=0.1, affine=True, track_running_stats=True)
          (downsample): Sequential(
            (0): Conv2d(4, 16, kernel_size=(1, 1), stride=(2, 2), bias=False)
            (1): BatchNorm2d(16, eps=1e-05, momentum=0.1, affine=True, track_running_stats=True)
          )
        )
      )
    )
    (1): PAIModulePyThread(
      (layerArray): ModuleList(
        (0-3): 4 x BasicBlock(
          (conv1): Conv2d(16, 4, kernel_size=(3, 3), stride=(1, 1), padding=(1, 1), bias=False)
          (bn1): BatchNorm2d(4, eps=1e-05, momentum=0.1, affine=True, track_running_stats=True)
          (relu): ReLU(inplace=True)
          (conv2): Conv2d(4, 16, kernel_size=(3, 3), stride=(1, 1), padding=(1, 1), bias=False)
          (bn2): BatchNorm2d(16, eps=1e-05, momentum=0.1, affine=True, track_running_stats=True)
        )
      )
    )
  )
  (layer3): Sequential(
    (0): PAIModulePyThread(
      (layerArray): ModuleList(
        (0-3): 4 x BasicBlock(
          (conv1): Conv2d(16, 8, kernel_size=(3, 3), stride=(2, 2), padding=(1, 1), bias=False)
          (bn1): BatchNorm2d(8, eps=1e-05, momentum=0.1, affine=True, track_running_stats=True)
          (relu): ReLU(inplace=True)
          (conv2): Conv2d(8, 32, kernel_size=(3, 3), stride=(1, 1), padding=(1, 1), bias=False)
          (bn2): BatchNorm2d(32, eps=1e-05, momentum=0.1, affine=True, track_running_stats=True)
          (downsample): Sequential(
            (0): Conv2d(8, 32, kernel_size=(1, 1), stride=(2, 2), bias=False)
            (1): BatchNorm2d(32, eps=1e-05, momentum=0.1, affine=True, track_running_stats=True)
          )
        )
      )
    )
    (1): PAIModulePyThread(
      (layerArray): ModuleList(
        (0-3): 4 x BasicBlock(
          (conv1): Conv2d(32, 8, kernel_size=(3, 3), stride=(1, 1), padding=(1, 1), bias=False)
          (bn1): BatchNorm2d(8, eps=1e-05, momentum=0.1, affine=True, track_running_stats=True)
          (relu): ReLU(inplace=True)
          (conv2): Conv2d(8, 32, kernel_size=(3, 3), stride=(1, 1), padding=(1, 1), bias=False)
          (bn2): BatchNorm2d(32, eps=1e-05, momentum=0.1, affine=True, track_running_stats=True)
        )
      )
    )
  )
  (layer4): Sequential(
    (0): PAIModulePyThread(
      (layerArray): ModuleList(
        (0-3): 4 x BasicBlock(
          (conv1): Conv2d(32, 16, kernel_size=(3, 3), stride=(2, 2), padding=(1, 1), bias=False)
          (bn1): BatchNorm2d(16, eps=1e-05, momentum=0.1, affine=True, track_running_stats=True)
          (relu): ReLU(inplace=True)
          (conv2): Conv2d(16, 64, kernel_size=(3, 3), stride=(1, 1), padding=(1, 1), bias=False)
          (bn2): BatchNorm2d(64, eps=1e-05, momentum=0.1, affine=True, track_running_stats=True)
          (downsample): Sequential(
            (0): Conv2d(16, 64, kernel_size=(1, 1), stride=(2, 2), bias=False)
            (1): BatchNorm2d(64, eps=1e-05, momentum=0.1, affine=True, track_running_stats=True)
          )
        )
      )
    )
    (1): PAIModulePyThread(
      (layerArray): ModuleList(
        (0-3): 4 x BasicBlock(
          (conv1): Conv2d(64, 16, kernel_size=(3, 3), stride=(1, 1), padding=(1, 1), bias=False)
          (bn1): BatchNorm2d(16, eps=1e-05, momentum=0.1, affine=True, track_running_stats=True)
          (relu): ReLU(inplace=True)
          (conv2): Conv2d(16, 64, kernel_size=(3, 3), stride=(1, 1), padding=(1, 1), bias=False)
          (bn2): BatchNorm2d(64, eps=1e-05, momentum=0.1, affine=True, track_running_stats=True)
        )
      )
    )
  )
  (avgpool): AdaptiveAvgPool2d(output_size=(1, 1))
  (fc): PAIModulePyThread(
    (layerArray): ModuleList(
      (0-3): 4 x Linear(in_features=64, out_features=1000, bias=True)
    )
  )
)
Training the model after pruning

---------------Epoch number: 0 ---Train accuracy: 44.22872340425532 ----Test accuracy: 51.319148936170215 --------------
…
selected  UNIMP indices  [[1], [1], [0], [1], [0], [1], [0], [1], [3, 0], [1, 3], [2, 1], [2, 1], [3, 2], [2, 3], [1, 2], [1, 2], [4, 7, 0, 5], [1, 2, 7, 0], [0, 1, 3, 4], [4, 1, 6, 0], [4, 5, 0, 7], [7, 5, 4, 6], [2, 4, 5, 6], [4, 2, 1, 0], [9, 5, 8, 0, 1, 13, 2, 6], [9, 14, 2, 10, 0, 1, 11, 4], [13, 4, 11, 7, 14, 6, 8, 10], [0, 7, 13, 9, 3, 10, 15, 11], [12, 8, 2, 4, 13, 10, 9, 3], [15, 5, 4, 0, 8, 13, 2, 10], [0, 4, 9, 7, 13, 10, 6, 2], [7, 3, 0, 1, 4, 9, 12, 11]]
The length of indices is  32
1
1
1
1
1
1
1
1
2
2
2
2
2
2
2
2
4
4
4
4
4
4
4
4
8
8
8
8
8
8
8
8
ResNet(
  (conv1): PAIModulePyThread(
    (layerArray): ModuleList(
      (0-3): 4 x PBSequential(
        (model): Sequential(
          (0): Conv2d(3, 64, kernel_size=(7, 7), stride=(2, 2), padding=(3, 3), bias=False)
          (1): BatchNorm2d(64, eps=1e-05, momentum=0.1, affine=True, track_running_stats=True)
        )
      )
    )
  )
  (relu): ReLU(inplace=True)
  (maxpool): MaxPool2d(kernel_size=3, stride=2, padding=1, dilation=1, ceil_mode=False)
  (layer1): Sequential(
    (0): PAIModulePyThread(
      (layerArray): ModuleList(
        (0-3): 4 x BasicBlock(
          (conv1): Conv2d(64, 1, kernel_size=(3, 3), stride=(1, 1), padding=(1, 1), bias=False)
          (bn1): BatchNorm2d(1, eps=1e-05, momentum=0.1, affine=True, track_running_stats=True)
          (relu): ReLU(inplace=True)
          (conv2): Conv2d(1, 8, kernel_size=(3, 3), stride=(1, 1), padding=(1, 1), bias=False)
          (bn2): BatchNorm2d(8, eps=1e-05, momentum=0.1, affine=True, track_running_stats=True)
          (downsample): Sequential(
            (0): Conv2d(1, 8, kernel_size=(1, 1), stride=(1, 1), bias=False)
            (1): BatchNorm2d(8, eps=1e-05, momentum=0.1, affine=True, track_running_stats=True)
          )
        )
      )
    )
    (1): PAIModulePyThread(
      (layerArray): ModuleList(
        (0-3): 4 x BasicBlock(
          (conv1): Conv2d(8, 1, kernel_size=(3, 3), stride=(1, 1), padding=(1, 1), bias=False)
          (bn1): BatchNorm2d(1, eps=1e-05, momentum=0.1, affine=True, track_running_stats=True)
          (relu): ReLU(inplace=True)
          (conv2): Conv2d(1, 8, kernel_size=(3, 3), stride=(1, 1), padding=(1, 1), bias=False)
          (bn2): BatchNorm2d(8, eps=1e-05, momentum=0.1, affine=True, track_running_stats=True)
        )
      )
    )
  )
  (layer2): Sequential(
    (0): PAIModulePyThread(
      (layerArray): ModuleList(
        (0-3): 4 x BasicBlock(
          (conv1): Conv2d(8, 2, kernel_size=(3, 3), stride=(2, 2), padding=(1, 1), bias=False)
          (bn1): BatchNorm2d(2, eps=1e-05, momentum=0.1, affine=True, track_running_stats=True)
          (relu): ReLU(inplace=True)
          (conv2): Conv2d(2, 16, kernel_size=(3, 3), stride=(1, 1), padding=(1, 1), bias=False)
          (bn2): BatchNorm2d(16, eps=1e-05, momentum=0.1, affine=True, track_running_stats=True)
          (downsample): Sequential(
            (0): Conv2d(2, 16, kernel_size=(1, 1), stride=(2, 2), bias=False)
            (1): BatchNorm2d(16, eps=1e-05, momentum=0.1, affine=True, track_running_stats=True)
          )
        )
      )
    )
    (1): PAIModulePyThread(
      (layerArray): ModuleList(
        (0-3): 4 x BasicBlock(
          (conv1): Conv2d(16, 2, kernel_size=(3, 3), stride=(1, 1), padding=(1, 1), bias=False)
          (bn1): BatchNorm2d(2, eps=1e-05, momentum=0.1, affine=True, track_running_stats=True)
          (relu): ReLU(inplace=True)
          (conv2): Conv2d(2, 16, kernel_size=(3, 3), stride=(1, 1), padding=(1, 1), bias=False)
          (bn2): BatchNorm2d(16, eps=1e-05, momentum=0.1, affine=True, track_running_stats=True)
        )
      )
    )
  )
  (layer3): Sequential(
    (0): PAIModulePyThread(
      (layerArray): ModuleList(
        (0-3): 4 x BasicBlock(
          (conv1): Conv2d(16, 4, kernel_size=(3, 3), stride=(2, 2), padding=(1, 1), bias=False)
          (bn1): BatchNorm2d(4, eps=1e-05, momentum=0.1, affine=True, track_running_stats=True)
          (relu): ReLU(inplace=True)
          (conv2): Conv2d(4, 32, kernel_size=(3, 3), stride=(1, 1), padding=(1, 1), bias=False)
          (bn2): BatchNorm2d(32, eps=1e-05, momentum=0.1, affine=True, track_running_stats=True)
          (downsample): Sequential(
            (0): Conv2d(4, 32, kernel_size=(1, 1), stride=(2, 2), bias=False)
            (1): BatchNorm2d(32, eps=1e-05, momentum=0.1, affine=True, track_running_stats=True)
          )
        )
      )
    )
    (1): PAIModulePyThread(
      (layerArray): ModuleList(
        (0-3): 4 x BasicBlock(
          (conv1): Conv2d(32, 4, kernel_size=(3, 3), stride=(1, 1), padding=(1, 1), bias=False)
          (bn1): BatchNorm2d(4, eps=1e-05, momentum=0.1, affine=True, track_running_stats=True)
          (relu): ReLU(inplace=True)
          (conv2): Conv2d(4, 32, kernel_size=(3, 3), stride=(1, 1), padding=(1, 1), bias=False)
          (bn2): BatchNorm2d(32, eps=1e-05, momentum=0.1, affine=True, track_running_stats=True)
        )
      )
    )
  )
  (layer4): Sequential(
    (0): PAIModulePyThread(
      (layerArray): ModuleList(
        (0-3): 4 x BasicBlock(
          (conv1): Conv2d(32, 8, kernel_size=(3, 3), stride=(2, 2), padding=(1, 1), bias=False)
          (bn1): BatchNorm2d(8, eps=1e-05, momentum=0.1, affine=True, track_running_stats=True)
          (relu): ReLU(inplace=True)
          (conv2): Conv2d(8, 64, kernel_size=(3, 3), stride=(1, 1), padding=(1, 1), bias=False)
          (bn2): BatchNorm2d(64, eps=1e-05, momentum=0.1, affine=True, track_running_stats=True)
          (downsample): Sequential(
            (0): Conv2d(8, 64, kernel_size=(1, 1), stride=(2, 2), bias=False)
            (1): BatchNorm2d(64, eps=1e-05, momentum=0.1, affine=True, track_running_stats=True)
          )
        )
      )
    )
    (1): PAIModulePyThread(
      (layerArray): ModuleList(
        (0-3): 4 x BasicBlock(
          (conv1): Conv2d(64, 8, kernel_size=(3, 3), stride=(1, 1), padding=(1, 1), bias=False)
          (bn1): BatchNorm2d(8, eps=1e-05, momentum=0.1, affine=True, track_running_stats=True)
          (relu): ReLU(inplace=True)
          (conv2): Conv2d(8, 64, kernel_size=(3, 3), stride=(1, 1), padding=(1, 1), bias=False)
          (bn2): BatchNorm2d(64, eps=1e-05, momentum=0.1, affine=True, track_running_stats=True)
        )
      )
    )
  )
  (avgpool): AdaptiveAvgPool2d(output_size=(1, 1))
  (fc): PAIModulePyThread(
    (layerArray): ModuleList(
      (0-3): 4 x Linear(in_features=64, out_features=1000, bias=True)
    )
  )
)
Training the model after pruning

---------------Epoch number: 0 ---Train accuracy: 26.81737588652482 ----Test accuracy: 34.659574468085104 --------------
…
selected  UNIMP indices  [[], [], [], [], [], [], [], [], [0], [1], [0], [1], [0], [0], [1], [1], [0, 1, 2], [0, 2, 3], [0, 2, 1], [3, 1, 0], [3, 0, 2], [1, 2, 0], [2, 0, 1], [1, 2, 0], [5, 1, 3, 4, 6, 7, 0], [1, 3, 4, 2, 7, 6, 5], [6, 0, 3, 7, 1, 5, 2], [5, 0, 6, 4, 3, 7, 1], [4, 0, 2, 3, 7, 6, 5], [4, 1, 7, 5, 3, 2, 6], [7, 3, 6, 5, 2, 4, 0], [1, 5, 6, 2, 0, 4, 7]]
The length of indices is  32
1
1
1
1
1
1
1
1
1
1
1
1
1
1
1
1
1
1
1
1
1
1
1
1
1
1
1
1
1
1
1
1
ResNet(
  (conv1): PAIModulePyThread(
    (layerArray): ModuleList(
      (0-3): 4 x PBSequential(
        (model): Sequential(
          (0): Conv2d(3, 64, kernel_size=(7, 7), stride=(2, 2), padding=(3, 3), bias=False)
          (1): BatchNorm2d(64, eps=1e-05, momentum=0.1, affine=True, track_running_stats=True)
        )
      )
    )
  )
  (relu): ReLU(inplace=True)
  (maxpool): MaxPool2d(kernel_size=3, stride=2, padding=1, dilation=1, ceil_mode=False)
  (layer1): Sequential(
    (0): PAIModulePyThread(
      (layerArray): ModuleList(
        (0-3): 4 x BasicBlock(
          (conv1): Conv2d(64, 1, kernel_size=(3, 3), stride=(1, 1), padding=(1, 1), bias=False)
          (bn1): BatchNorm2d(1, eps=1e-05, momentum=0.1, affine=True, track_running_stats=True)
          (relu): ReLU(inplace=True)
          (conv2): Conv2d(1, 8, kernel_size=(3, 3), stride=(1, 1), padding=(1, 1), bias=False)
          (bn2): BatchNorm2d(8, eps=1e-05, momentum=0.1, affine=True, track_running_stats=True)
          (downsample): Sequential(
            (0): Conv2d(1, 8, kernel_size=(1, 1), stride=(1, 1), bias=False)
            (1): BatchNorm2d(8, eps=1e-05, momentum=0.1, affine=True, track_running_stats=True)
          )
        )
      )
    )
    (1): PAIModulePyThread(
      (layerArray): ModuleList(
        (0-3): 4 x BasicBlock(
          (conv1): Conv2d(8, 1, kernel_size=(3, 3), stride=(1, 1), padding=(1, 1), bias=False)
          (bn1): BatchNorm2d(1, eps=1e-05, momentum=0.1, affine=True, track_running_stats=True)
          (relu): ReLU(inplace=True)
          (conv2): Conv2d(1, 8, kernel_size=(3, 3), stride=(1, 1), padding=(1, 1), bias=False)
          (bn2): BatchNorm2d(8, eps=1e-05, momentum=0.1, affine=True, track_running_stats=True)
        )
      )
    )
  )
  (layer2): Sequential(
    (0): PAIModulePyThread(
      (layerArray): ModuleList(
        (0-3): 4 x BasicBlock(
          (conv1): Conv2d(8, 1, kernel_size=(3, 3), stride=(2, 2), padding=(1, 1), bias=False)
          (bn1): BatchNorm2d(1, eps=1e-05, momentum=0.1, affine=True, track_running_stats=True)
          (relu): ReLU(inplace=True)
          (conv2): Conv2d(1, 16, kernel_size=(3, 3), stride=(1, 1), padding=(1, 1), bias=False)
          (bn2): BatchNorm2d(16, eps=1e-05, momentum=0.1, affine=True, track_running_stats=True)
          (downsample): Sequential(
            (0): Conv2d(1, 16, kernel_size=(1, 1), stride=(2, 2), bias=False)
            (1): BatchNorm2d(16, eps=1e-05, momentum=0.1, affine=True, track_running_stats=True)
          )
        )
      )
    )
    (1): PAIModulePyThread(
      (layerArray): ModuleList(
        (0-3): 4 x BasicBlock(
          (conv1): Conv2d(16, 1, kernel_size=(3, 3), stride=(1, 1), padding=(1, 1), bias=False)
          (bn1): BatchNorm2d(1, eps=1e-05, momentum=0.1, affine=True, track_running_stats=True)
          (relu): ReLU(inplace=True)
          (conv2): Conv2d(1, 16, kernel_size=(3, 3), stride=(1, 1), padding=(1, 1), bias=False)
          (bn2): BatchNorm2d(16, eps=1e-05, momentum=0.1, affine=True, track_running_stats=True)
        )
      )
    )
  )
  (layer3): Sequential(
    (0): PAIModulePyThread(
      (layerArray): ModuleList(
        (0-3): 4 x BasicBlock(
          (conv1): Conv2d(16, 1, kernel_size=(3, 3), stride=(2, 2), padding=(1, 1), bias=False)
          (bn1): BatchNorm2d(1, eps=1e-05, momentum=0.1, affine=True, track_running_stats=True)
          (relu): ReLU(inplace=True)
          (conv2): Conv2d(1, 32, kernel_size=(3, 3), stride=(1, 1), padding=(1, 1), bias=False)
          (bn2): BatchNorm2d(32, eps=1e-05, momentum=0.1, affine=True, track_running_stats=True)
          (downsample): Sequential(
            (0): Conv2d(1, 32, kernel_size=(1, 1), stride=(2, 2), bias=False)
            (1): BatchNorm2d(32, eps=1e-05, momentum=0.1, affine=True, track_running_stats=True)
          )
        )
      )
    )
    (1): PAIModulePyThread(
      (layerArray): ModuleList(
        (0-3): 4 x BasicBlock(
          (conv1): Conv2d(32, 1, kernel_size=(3, 3), stride=(1, 1), padding=(1, 1), bias=False)
          (bn1): BatchNorm2d(1, eps=1e-05, momentum=0.1, affine=True, track_running_stats=True)
          (relu): ReLU(inplace=True)
          (conv2): Conv2d(1, 32, kernel_size=(3, 3), stride=(1, 1), padding=(1, 1), bias=False)
          (bn2): BatchNorm2d(32, eps=1e-05, momentum=0.1, affine=True, track_running_stats=True)
        )
      )
    )
  )
  (layer4): Sequential(
    (0): PAIModulePyThread(
      (layerArray): ModuleList(
        (0-3): 4 x BasicBlock(
          (conv1): Conv2d(32, 1, kernel_size=(3, 3), stride=(2, 2), padding=(1, 1), bias=False)
          (bn1): BatchNorm2d(1, eps=1e-05, momentum=0.1, affine=True, track_running_stats=True)
          (relu): ReLU(inplace=True)
          (conv2): Conv2d(1, 64, kernel_size=(3, 3), stride=(1, 1), padding=(1, 1), bias=False)
          (bn2): BatchNorm2d(64, eps=1e-05, momentum=0.1, affine=True, track_running_stats=True)
          (downsample): Sequential(
            (0): Conv2d(1, 64, kernel_size=(1, 1), stride=(2, 2), bias=False)
            (1): BatchNorm2d(64, eps=1e-05, momentum=0.1, affine=True, track_running_stats=True)
          )
        )
      )
    )
    (1): PAIModulePyThread(
      (layerArray): ModuleList(
        (0-3): 4 x BasicBlock(
          (conv1): Conv2d(64, 1, kernel_size=(3, 3), stride=(1, 1), padding=(1, 1), bias=False)
          (bn1): BatchNorm2d(1, eps=1e-05, momentum=0.1, affine=True, track_running_stats=True)
          (relu): ReLU(inplace=True)
          (conv2): Conv2d(1, 64, kernel_size=(3, 3), stride=(1, 1), padding=(1, 1), bias=False)
          (bn2): BatchNorm2d(64, eps=1e-05, momentum=0.1, affine=True, track_running_stats=True)
        )
      )
    )
  )
  (avgpool): AdaptiveAvgPool2d(output_size=(1, 1))
  (fc): PAIModulePyThread(
    (layerArray): ModuleList(
      (0-3): 4 x Linear(in_features=64, out_features=1000, bias=True)
    )
  )
)
Training the model after pruning

---------------Epoch number: 0 ---Train accuracy: 10.74645390070922 ----Test accuracy: 16.893617021276597 --------------
…
