…
0.0625, n=8000, niters=300, nonormalize=False, norm=True, num_ref_points=128, old_split=1, quantization=0.016, rec_hidden=64, save=1, seed=0, split=0, std=0.01) 11975
The device being used here is:  cuda
4000
tensor(362.) tensor(82.) tensor(110.)
torch.Size([2560, 190, 83]) torch.Size([2560, 1]) torch.Size([640, 163, 83]) torch.Size([640, 1]) torch.Size([800, 203, 83]) torch.Size([800, 1])
Before loading parameters: 799 547 194
parameters: 799 547 194
enc_mtan_rnn(
  (att): multiTimeAttention(
    (linears): ModuleList(
      (0-1): 2 x Linear(in_features=8, out_features=8, bias=True)
      (2): Linear(in_features=82, out_features=4, bias=True)
    )
  )
  (gru_rnn): GRU(4, 4, batch_first=True, bidirectional=True)
  (hiddens_to_z0): Sequential(
    (0): Linear(in_features=8, out_features=3, bias=True)
    (1): ReLU()
    (2): Linear(in_features=3, out_features=6, bias=True)
  )
  (embedder1): mtan_time_embedder(
    (periodic): Linear(in_features=1, out_features=7, bias=True)
    (linear): Linear(in_features=1, out_features=1, bias=True)
  )
  (embedder2): mtan_time_embedder(
    (periodic): Linear(in_features=1, out_features=7, bias=True)
    (linear): Linear(in_features=1, out_features=1, bias=True)
  )
)
dec_mtan_rnn(
  (att): multiTimeAttention(
    (linears): ModuleList(
      (0-1): 2 x Linear(in_features=8, out_features=8, bias=True)
      (2): Linear(in_features=6, out_features=6, bias=True)
    )
  )
  (gru_rnn): GRU(3, 3, batch_first=True, bidirectional=True)
  (z0_to_obs): Sequential(
    (0): Linear(in_features=6, out_features=3, bias=True)
    (1): ReLU()
    (2): Linear(in_features=3, out_features=41, bias=True)
  )
  (embedder1): mtan_time_embedder(
    (periodic): Linear(in_features=1, out_features=7, bias=True)
    (linear): Linear(in_features=1, out_features=1, bias=True)
  )
  (embedder2): mtan_time_embedder(
    (periodic): Linear(in_features=1, out_features=7, bias=True)
    (linear): Linear(in_features=1, out_features=1, bias=True)
  )
)
create_classifier(
  (gru_rnn): reverseGru(3, 4, batch_first=True)
  (classifier): Sequential(
    (0): Linear(in_features=4, out_features=6, bias=True)
    (1): ReLU()
    (2): Linear(in_features=6, out_features=6, bias=True)
    (3): ReLU()
    (4): Linear(in_features=6, out_features=2, bias=True)
  )
)
parameters: 799 547 194
Pruning Iter: 1, Iter: 1, recon_loss: 1428.4888, ce_loss: 0.6775, acc: 0.8320, mse: 0.2852, val_loss: 0.6679, val_acc: 0.8625, val_auc: 0.4600, test_acc: 0.8575, test_auc: 0.4698
Pruning Iter: 1, Iter: 2, recon_loss: 1397.9038, ce_loss: 0.6617, acc: 0.8539, mse: 0.2790, val_loss: 0.6523, val_acc: 0.8703, val_auc: 0.5162, test_acc: 0.8625, test_auc: 0.4693
…
bias_ih_l0 : torch.Size([6])
bias_hh_l0 : torch.Size([6])
weight_ih_l0_reverse : torch.Size([6, 3])
weight_hh_l0_reverse : torch.Size([6, 3])
bias_ih_l0_reverse : torch.Size([6])
bias_hh_l0_reverse : torch.Size([6])
Shape of normal gru is:  12
We have index size as:  4
Shape of hidden gru unit:  4
Index:  3
=========================================================
=========================================================
Pruning iteration is:  1
Encoder
enc_mtan_rnn(
  (att): multiTimeAttention(
    (linears): ModuleList(
      (0-1): 2 x Linear(in_features=8, out_features=8, bias=True)
      (2): Linear(in_features=82, out_features=4, bias=True)
    )
  )
  (gru_rnn): GRU(4, 3, batch_first=True, bidirectional=True)
  (hiddens_to_z0): Sequential(
    (0): Linear(in_features=6, out_features=2, bias=True)
    (1): ReLU()
    (2): Linear(in_features=2, out_features=6, bias=True)
  )
  (embedder1): mtan_time_embedder(
    (periodic): Linear(in_features=1, out_features=7, bias=True)
    (linear): Linear(in_features=1, out_features=1, bias=True)
  )
  (embedder2): mtan_time_embedder(
    (periodic): Linear(in_features=1, out_features=7, bias=True)
    (linear): Linear(in_features=1, out_features=1, bias=True)
  )
)
Decodder
dec_mtan_rnn(
  (att): multiTimeAttention(
    (linears): ModuleList(
      (0-1): 2 x Linear(in_features=8, out_features=8, bias=True)
      (2): Linear(in_features=6, out_features=6, bias=True)
    )
  )
  (gru_rnn): GRU(3, 2, batch_first=True, bidirectional=True)
  (z0_to_obs): Sequential(
    (0): Linear(in_features=6, out_features=2, bias=True)
    (1): ReLU()
    (2): Linear(in_features=2, out_features=41, bias=True)
  )
  (embedder1): mtan_time_embedder(
    (periodic): Linear(in_features=1, out_features=7, bias=True)
    (linear): Linear(in_features=1, out_features=1, bias=True)
  )
  (embedder2): mtan_time_embedder(
    (periodic): Linear(in_features=1, out_features=7, bias=True)
    (linear): Linear(in_features=1, out_features=1, bias=True)
  )
)
Classifier
create_classifier(
  (gru_rnn): reverseGru(3, 3, batch_first=True)
  (classifier): Sequential(
    (0): Linear(in_features=3, out_features=5, bias=True)
    (1): ReLU()
    (2): Linear(in_features=5, out_features=5, bias=True)
    (3): ReLU()
    (4): Linear(in_features=5, out_features=2, bias=True)
  )
)
parameters: 702 439 134
Pruning Iter: 2, Iter: 1, recon_loss: 1301.4694, ce_loss: 0.8420, acc: 0.1414, mse: 0.2602, val_loss: 0.8083, val_acc: 0.1297, val_auc: 0.6810, test_acc: 0.1375, test_auc: 0.6347
Pruning Iter: 2, Iter: 2, recon_loss: 1146.5968, ce_loss: 0.7707, acc: 0.1582, mse: 0.2295, val_loss: 0.7404, val_acc: 0.1844, val_auc: 0.6411, test_acc: 0.2050, test_auc: 0.6285
…
bias_ih_l0 : torch.Size([6])
bias_hh_l0 : torch.Size([6])
weight_ih_l0_reverse : torch.Size([6, 4])
weight_hh_l0_reverse : torch.Size([6, 3])
bias_ih_l0_reverse : torch.Size([6])
bias_hh_l0_reverse : torch.Size([6])
Shape of normal gru is:  9
We have index size as:  3
Shape of hidden gru unit:  3
Index:  2
=========================================================
=========================================================
Pruning iteration is:  2
Encoder
enc_mtan_rnn(
  (att): multiTimeAttention(
    (linears): ModuleList(
      (0-1): 2 x Linear(in_features=8, out_features=8, bias=True)
      (2): Linear(in_features=82, out_features=4, bias=True)
    )
  )
  (gru_rnn): GRU(4, 2, batch_first=True, bidirectional=True)
  (hiddens_to_z0): Sequential(
    (0): Linear(in_features=4, out_features=50, bias=True)
    (1): ReLU()
    (2): Linear(in_features=2, out_features=6, bias=True)
  )
  (embedder1): mtan_time_embedder(
    (periodic): Linear(in_features=1, out_features=7, bias=True)
    (linear): Linear(in_features=1, out_features=1, bias=True)
  )
  (embedder2): mtan_time_embedder(
    (periodic): Linear(in_features=1, out_features=7, bias=True)
    (linear): Linear(in_features=1, out_features=1, bias=True)
  )
)
Decodder
dec_mtan_rnn(
  (att): multiTimeAttention(
    (linears): ModuleList(
      (0-1): 2 x Linear(in_features=8, out_features=8, bias=True)
      (2): Linear(in_features=4, out_features=6, bias=True)
    )
  )
  (gru_rnn): GRU(3, 2, batch_first=True, bidirectional=True)
  (z0_to_obs): Sequential(
    (0): Linear(in_features=6, out_features=2, bias=True)
    (1): ReLU()
    (2): Linear(in_features=2, out_features=41, bias=True)
  )
  (embedder1): mtan_time_embedder(
    (periodic): Linear(in_features=1, out_features=7, bias=True)
    (linear): Linear(in_features=1, out_features=1, bias=True)
  )
  (embedder2): mtan_time_embedder(
    (periodic): Linear(in_features=1, out_features=7, bias=True)
    (linear): Linear(in_features=1, out_features=1, bias=True)
  )
)
Classifier
create_classifier(
  (gru_rnn): reverseGru(3, 2, batch_first=True)
  (classifier): Sequential(
    (0): Linear(in_features=2, out_features=4, bias=True)
    (1): ReLU()
    (2): Linear(in_features=4, out_features=4, bias=True)
    (3): ReLU()
    (4): Linear(in_features=4, out_features=2, bias=True)
  )
)
parameters: 632 427 84
Pruning Iter: 3, Iter: 1, recon_loss: 39.2062, ce_loss: 0.5279, acc: 0.8586, mse: 0.0084, val_loss: 0.4747, val_acc: 0.8719, val_auc: 0.3054, test_acc: 0.8625, test_auc: 0.2851
Pruning Iter: 3, Iter: 2, recon_loss: 38.8997, ce_loss: 0.5110, acc: 0.8586, mse: 0.0084, val_loss: 0.4578, val_acc: 0.8719, val_auc: 0.3154, test_acc: 0.8625, test_auc: 0.3028
…
Pruning Iter: 3, Iter: 299, recon_loss: 38.4983, ce_loss: 0.3039, acc: 0.8793, mse: 0.0082, val_loss: 0.2988, val_acc: 0.8812, val_auc: 0.8284, test_acc: 0.8825, test_auc: 0.8437
Pruning Iter: 3, Iter: 300, recon_loss: 38.5016, ce_loss: 0.3071, acc: 0.8703, mse: 0.0082, val_loss: 0.2971, val_acc: 0.8703, val_auc: 0.8297, test_acc: 0.8875, test_auc: 0.8411
Pruning iteration:  3
Best auc:  0.8562318840579709
=========================================================
=========================================================
Pruning iteration is:  3
Encoder
enc_mtan_rnn(
  (att): multiTimeAttention(
    (linears): ModuleList(
      (0-1): 2 x Linear(in_features=8, out_features=8, bias=True)
      (2): Linear(in_features=82, out_features=4, bias=True)
    )
  )
  (gru_rnn): GRU(4, 2, batch_first=True, bidirectional=True)
  (hiddens_to_z0): Sequential(
    (0): Linear(in_features=4, out_features=50, bias=True)
    (1): ReLU()
    (2): Linear(in_features=2, out_features=6, bias=True)
  )
  (embedder1): mtan_time_embedder(
    (periodic): Linear(in_features=1, out_features=7, bias=True)
    (linear): Linear(in_features=1, out_features=1, bias=True)
  )
  (embedder2): mtan_time_embedder(
    (periodic): Linear(in_features=1, out_features=7, bias=True)
    (linear): Linear(in_features=1, out_features=1, bias=True)
  )
)
Decodder
dec_mtan_rnn(
  (att): multiTimeAttention(
    (linears): ModuleList(
      (0-1): 2 x Linear(in_features=8, out_features=8, bias=True)
      (2): Linear(in_features=4, out_features=6, bias=True)
    )
  )
  (gru_rnn): GRU(3, 2, batch_first=True, bidirectional=True)
  (z0_to_obs): Sequential(
    (0): Linear(in_features=6, out_features=2, bias=True)
    (1): ReLU()
    (2): Linear(in_features=2, out_features=41, bias=True)
  )
  (embedder1): mtan_time_embedder(
    (periodic): Linear(in_features=1, out_features=7, bias=True)
    (linear): Linear(in_features=1, out_features=1, bias=True)
  )
  (embedder2): mtan_time_embedder(
    (periodic): Linear(in_features=1, out_features=7, bias=True)
    (linear): Linear(in_features=1, out_features=1, bias=True)
  )
)
Classifier
create_classifier(
  (gru_rnn): reverseGru(3, 2, batch_first=True)
  (classifier): Sequential(
    (0): Linear(in_features=2, out_features=3, bias=True)
    (1): ReLU()
    (2): Linear(in_features=3, out_features=3, bias=True)
    (3): ReLU()
    (4): Linear(in_features=3, out_features=2, bias=True)
  )
)
parameters: 632 427 71
Pruning Iter: 4, Iter: 1, recon_loss: 38.0378, ce_loss: 0.7966, acc: 0.4867, mse: 0.0082, val_loss: 0.5559, val_acc: 0.7641, val_auc: 0.2156, test_acc: 0.7575, test_auc: 0.1936
Pruning Iter: 4, Iter: 2, recon_loss: 38.2318, ce_loss: 0.4995, acc: 0.8203, mse: 0.0082, val_loss: 0.4333, val_acc: 0.8641, val_auc: 0.2919, test_acc: 0.8562, test_auc: 0.2934
…
Pruning Iter: 4, Iter: 299, recon_loss: 37.4289, ce_loss: 0.3013, acc: 0.8781, mse: 0.0080, val_loss: 0.2968, val_acc: 0.8844, val_auc: 0.8204, test_acc: 0.8812, test_auc: 0.8391
Pruning Iter: 4, Iter: 300, recon_loss: 37.4474, ce_loss: 0.2986, acc: 0.8801, mse: 0.0080, val_loss: 0.2928, val_acc: 0.8859, val_auc: 0.8302, test_acc: 0.8750, test_auc: 0.8429
Pruning iteration:  4
Best auc:  0.8474176548089594
=========================================================
=========================================================
Pruning iteration is:  4
Encoder
enc_mtan_rnn(
  (att): multiTimeAttention(
    (linears): ModuleList(
      (0-1): 2 x Linear(in_features=8, out_features=8, bias=True)
      (2): Linear(in_features=82, out_features=4, bias=True)
    )
  )
  (gru_rnn): GRU(4, 2, batch_first=True, bidirectional=True)
  (hiddens_to_z0): Sequential(
    (0): Linear(in_features=4, out_features=50, bias=True)
    (1): ReLU()
    (2): Linear(in_features=2, out_features=6, bias=True)
  )
  (embedder1): mtan_time_embedder(
    (periodic): Linear(in_features=1, out_features=7, bias=True)
    (linear): Linear(in_features=1, out_features=1, bias=True)
  )
  (embedder2): mtan_time_embedder(
    (periodic): Linear(in_features=1, out_features=7, bias=True)
    (linear): Linear(in_features=1, out_features=1, bias=True)
  )
)
Decodder
dec_mtan_rnn(
  (att): multiTimeAttention(
    (linears): ModuleList(
      (0-1): 2 x Linear(in_features=8, out_features=8, bias=True)
      (2): Linear(in_features=4, out_features=6, bias=True)
    )
  )
  (gru_rnn): GRU(3, 2, batch_first=True, bidirectional=True)
  (z0_to_obs): Sequential(
    (0): Linear(in_features=6, out_features=2, bias=True)
    (1): ReLU()
    (2): Linear(in_features=2, out_features=41, bias=True)
  )
  (embedder1): mtan_time_embedder(
    (periodic): Linear(in_features=1, out_features=7, bias=True)
    (linear): Linear(in_features=1, out_features=1, bias=True)
  )
  (embedder2): mtan_time_embedder(
    (periodic): Linear(in_features=1, out_features=7, bias=True)
    (linear): Linear(in_features=1, out_features=1, bias=True)
  )
)
Classifier
create_classifier(
  (gru_rnn): reverseGru(3, 2, batch_first=True)
  (classifier): Sequential(
    (0): Linear(in_features=2, out_features=2, bias=True)
    (1): ReLU()
    (2): Linear(in_features=2, out_features=2, bias=True)
    (3): ReLU()
    (4): Linear(in_features=2, out_features=2, bias=True)
  )
)
parameters: 632 427 60
Pruning Iter: 5, Iter: 1, recon_loss: 36.9923, ce_loss: 0.3248, acc: 0.8586, mse: 0.0080, val_loss: 0.2974, val_acc: 0.8734, val_auc: 0.8329, test_acc: 0.8638, test_auc: 0.8321
Pruning Iter: 5, Iter: 2, recon_loss: 36.9760, ce_loss: 0.3070, acc: 0.8602, mse: 0.0080, val_loss: 0.2965, val_acc: 0.8734, val_auc: 0.8318, test_acc: 0.8638, test_auc: 0.8376
…
Pruning Iter: 5, Iter: 299, recon_loss: 34.8820, ce_loss: 0.2904, acc: 0.8785, mse: 0.0075, val_loss: 0.2930, val_acc: 0.8797, val_auc: 0.8325, test_acc: 0.8700, test_auc: 0.8414
Pruning Iter: 5, Iter: 300, recon_loss: 34.8929, ce_loss: 0.2902, acc: 0.8785, mse: 0.0075, val_loss: 0.2875, val_acc: 0.8812, val_auc: 0.8405, test_acc: 0.8662, test_auc: 0.8452
Pruning iteration:  5
Best auc:  0.8485770750988143
=========================================================
=========================================================
Pruning iteration is:  5
Encoder
enc_mtan_rnn(
  (att): multiTimeAttention(
    (linears): ModuleList(
      (0-1): 2 x Linear(in_features=8, out_features=8, bias=True)
      (2): Linear(in_features=82, out_features=4, bias=True)
    )
  )
  (gru_rnn): GRU(4, 2, batch_first=True, bidirectional=True)
  (hiddens_to_z0): Sequential(
    (0): Linear(in_features=4, out_features=50, bias=True)
    (1): ReLU()
    (2): Linear(in_features=2, out_features=6, bias=True)
  )
  (embedder1): mtan_time_embedder(
    (periodic): Linear(in_features=1, out_features=7, bias=True)
    (linear): Linear(in_features=1, out_features=1, bias=True)
  )
  (embedder2): mtan_time_embedder(
    (periodic): Linear(in_features=1, out_features=7, bias=True)
    (linear): Linear(in_features=1, out_features=1, bias=True)
  )
)
Decodder
dec_mtan_rnn(
  (att): multiTimeAttention(
    (linears): ModuleList(
      (0-1): 2 x Linear(in_features=8, out_features=8, bias=True)
      (2): Linear(in_features=4, out_features=6, bias=True)
    )
  )
  (gru_rnn): GRU(3, 2, batch_first=True, bidirectional=True)
  (z0_to_obs): Sequential(
    (0): Linear(in_features=6, out_features=2, bias=True)
    (1): ReLU()
    (2): Linear(in_features=2, out_features=41, bias=True)
  )
  (embedder1): mtan_time_embedder(
    (periodic): Linear(in_features=1, out_features=7, bias=True)
    (linear): Linear(in_features=1, out_features=1, bias=True)
  )
  (embedder2): mtan_time_embedder(
    (periodic): Linear(in_features=1, out_features=7, bias=True)
    (linear): Linear(in_features=1, out_features=1, bias=True)
  )
)
Classifier
create_classifier(
  (gru_rnn): reverseGru(3, 2, batch_first=True)
  (classifier): Sequential(
    (0): Linear(in_features=2, out_features=1, bias=True)
    (1): ReLU()
    (2): Linear(in_features=1, out_features=1, bias=True)
    (3): ReLU()
    (4): Linear(in_features=1, out_features=2, bias=True)
  )
)
parameters: 632 427 51
Pruning Iter: 6, Iter: 1, recon_loss: 34.7139, ce_loss: 0.4739, acc: 0.8586, mse: 0.0075, val_loss: 0.4142, val_acc: 0.8719, val_auc: 0.2698, test_acc: 0.8625, test_auc: 0.2718
Pruning Iter: 6, Iter: 2, recon_loss: 34.6585, ce_loss: 0.4370, acc: 0.8586, mse: 0.0075, val_loss: 0.3988, val_acc: 0.8719, val_auc: 0.3705, test_acc: 0.8625, test_auc: 0.3721
…
Pruning Iter: 6, Iter: 299, recon_loss: 28.8675, ce_loss: 0.4076, acc: 0.8586, mse: 0.0063, val_loss: 0.3838, val_acc: 0.8719, val_auc: 0.5000, test_acc: 0.8625, test_auc: 0.5000
Pruning Iter: 6, Iter: 300, recon_loss: 28.8697, ce_loss: 0.4076, acc: 0.8586, mse: 0.0063, val_loss: 0.3838, val_acc: 0.8719, val_auc: 0.5000, test_acc: 0.8625, test_auc: 0.5000
Pruning iteration:  6
Best auc:  0.5038274044795784
=========================================================
=========================================================
Pruning iteration is:  6
Encoder
enc_mtan_rnn(
  (att): multiTimeAttention(
    (linears): ModuleList(
      (0-1): 2 x Linear(in_features=8, out_features=8, bias=True)
      (2): Linear(in_features=82, out_features=4, bias=True)
    )
  )
  (gru_rnn): GRU(4, 2, batch_first=True, bidirectional=True)
  (hiddens_to_z0): Sequential(
    (0): Linear(in_features=4, out_features=50, bias=True)
    (1): ReLU()
    (2): Linear(in_features=2, out_features=6, bias=True)
  )
  (embedder1): mtan_time_embedder(
    (periodic): Linear(in_features=1, out_features=7, bias=True)
    (linear): Linear(in_features=1, out_features=1, bias=True)
  )
  (embedder2): mtan_time_embedder(
    (periodic): Linear(in_features=1, out_features=7, bias=True)
    (linear): Linear(in_features=1, out_features=1, bias=True)
  )
)
Decodder
dec_mtan_rnn(
  (att): multiTimeAttention(
    (linears): ModuleList(
      (0-1): 2 x Linear(in_features=8, out_features=8, bias=True)
      (2): Linear(in_features=4, out_features=6, bias=True)
    )
  )
  (gru_rnn): GRU(3, 2, batch_first=True, bidirectional=True)
  (z0_to_obs): Sequential(
    (0): Linear(in_features=6, out_features=2, bias=True)
    (1): ReLU()
    (2): Linear(in_features=2, out_features=41, bias=True)
  )
  (embedder1): mtan_time_embedder(
    (periodic): Linear(in_features=1, out_features=7, bias=True)
    (linear): Linear(in_features=1, out_features=1, bias=True)
  )
  (embedder2): mtan_time_embedder(
    (periodic): Linear(in_features=1, out_features=7, bias=True)
    (linear): Linear(in_features=1, out_features=1, bias=True)
  )
)
Classifier
create_classifier(
  (gru_rnn): reverseGru(3, 2, batch_first=True)
  (classifier): Sequential(
    (0): Linear(in_features=2, out_features=0, bias=True)
    (1): ReLU()
    (2): Linear(in_features=0, out_features=0, bias=True)
    (3): ReLU()
    (4): Linear(in_features=0, out_features=2, bias=True)
  )
)
parameters: 632 427 44
Traceback (most recent call last):
  File "pruningBaseModelTrained.py", line 392, in <module>
    rec, dec, classifier = prune(rec, dec, classifier, train_loader, optimizer, criterion)
  File "pruningBaseModelTrained.py", line 269, in prune
    new_rec, new_dec, new_classifier = train_step(rec, dec, classifier, train_loader, optimizer, criterion)
…
