…
0.0625, n=8000, niters=300, nonormalize=False, norm=True, num_ref_points=128, old_split=1, quantization=0.016, rec_hidden=64, save=1, seed=0, split=0, std=0.01) 72443
The device being used here is:  cuda
4000
tensor(362.) tensor(82.) tensor(110.)
torch.Size([2560, 190, 83]) torch.Size([2560, 1]) torch.Size([640, 163, 83]) torch.Size([640, 1]) torch.Size([800, 203, 83]) torch.Size([800, 1])
Before loading parameters: 799 547 194
parameters: 799 547 194
enc_mtan_rnn(
  (att): multiTimeAttention(
    (linears): ModuleList(
      (0-1): 2 x Linear(in_features=8, out_features=8, bias=True)
      (2): Linear(in_features=82, out_features=4, bias=True)
    )
  )
  (gru_rnn): GRU(4, 4, batch_first=True, bidirectional=True)
  (hiddens_to_z0): Sequential(
    (0): Linear(in_features=8, out_features=3, bias=True)
    (1): ReLU()
    (2): Linear(in_features=3, out_features=6, bias=True)
  )
  (embedder1): mtan_time_embedder(
    (periodic): Linear(in_features=1, out_features=7, bias=True)
    (linear): Linear(in_features=1, out_features=1, bias=True)
  )
  (embedder2): mtan_time_embedder(
    (periodic): Linear(in_features=1, out_features=7, bias=True)
    (linear): Linear(in_features=1, out_features=1, bias=True)
  )
)
dec_mtan_rnn(
  (att): multiTimeAttention(
    (linears): ModuleList(
      (0-1): 2 x Linear(in_features=8, out_features=8, bias=True)
      (2): Linear(in_features=6, out_features=6, bias=True)
    )
  )
  (gru_rnn): GRU(3, 3, batch_first=True, bidirectional=True)
  (z0_to_obs): Sequential(
    (0): Linear(in_features=6, out_features=3, bias=True)
    (1): ReLU()
    (2): Linear(in_features=3, out_features=41, bias=True)
  )
  (embedder1): mtan_time_embedder(
    (periodic): Linear(in_features=1, out_features=7, bias=True)
    (linear): Linear(in_features=1, out_features=1, bias=True)
  )
  (embedder2): mtan_time_embedder(
    (periodic): Linear(in_features=1, out_features=7, bias=True)
    (linear): Linear(in_features=1, out_features=1, bias=True)
  )
)
create_classifier(
  (gru_rnn): reverseGru(3, 4, batch_first=True)
  (classifier): Sequential(
    (0): Linear(in_features=4, out_features=6, bias=True)
    (1): ReLU()
    (2): Linear(in_features=6, out_features=6, bias=True)
    (3): ReLU()
    (4): Linear(in_features=6, out_features=2, bias=True)
  )
)
weight_ih_l0 : torch.Size([9, 4])
weight_hh_l0 : torch.Size([9, 4])
bias_ih_l0 : torch.Size([9])
bias_hh_l0 : torch.Size([9])
weight_ih_l0_reverse : torch.Size([9, 4])
weight_hh_l0_reverse : torch.Size([9, 4])
bias_ih_l0_reverse : torch.Size([9])
bias_hh_l0_reverse : torch.Size([9])
weight_ih_l0 : torch.Size([6, 3])
weight_hh_l0 : torch.Size([6, 3])
bias_ih_l0 : torch.Size([6])
bias_hh_l0 : torch.Size([6])
weight_ih_l0_reverse : torch.Size([6, 3])
weight_hh_l0_reverse : torch.Size([6, 3])
bias_ih_l0_reverse : torch.Size([6])
bias_hh_l0_reverse : torch.Size([6])
Shape of normal gru is:  12
We have index size as:  4
Shape of hidden gru unit:  4
Index:  3
=========================================================
=========================================================
Pruning iteration is:  0
Encoder
enc_mtan_rnn(
  (att): multiTimeAttention(
    (linears): ModuleList(
      (0-1): 2 x Linear(in_features=8, out_features=8, bias=True)
      (2): Linear(in_features=82, out_features=4, bias=True)
    )
  )
  (gru_rnn): GRU(4, 3, batch_first=True, bidirectional=True)
  (hiddens_to_z0): Sequential(
    (0): Linear(in_features=6, out_features=2, bias=True)
    (1): ReLU()
    (2): Linear(in_features=2, out_features=6, bias=True)
  )
  (embedder1): mtan_time_embedder(
    (periodic): Linear(in_features=1, out_features=7, bias=True)
    (linear): Linear(in_features=1, out_features=1, bias=True)
  )
  (embedder2): mtan_time_embedder(
    (periodic): Linear(in_features=1, out_features=7, bias=True)
    (linear): Linear(in_features=1, out_features=1, bias=True)
  )
)
Decodder
dec_mtan_rnn(
  (att): multiTimeAttention(
    (linears): ModuleList(
      (0-1): 2 x Linear(in_features=8, out_features=8, bias=True)
      (2): Linear(in_features=6, out_features=6, bias=True)
    )
  )
  (gru_rnn): GRU(3, 2, batch_first=True, bidirectional=True)
  (z0_to_obs): Sequential(
    (0): Linear(in_features=6, out_features=2, bias=True)
    (1): ReLU()
    (2): Linear(in_features=2, out_features=41, bias=True)
  )
  (embedder1): mtan_time_embedder(
    (periodic): Linear(in_features=1, out_features=7, bias=True)
    (linear): Linear(in_features=1, out_features=1, bias=True)
  )
  (embedder2): mtan_time_embedder(
    (periodic): Linear(in_features=1, out_features=7, bias=True)
    (linear): Linear(in_features=1, out_features=1, bias=True)
  )
)
Classifier
create_classifier(
  (gru_rnn): reverseGru(3, 3, batch_first=True)
  (classifier): Sequential(
    (0): Linear(in_features=3, out_features=5, bias=True)
    (1): ReLU()
    (2): Linear(in_features=5, out_features=5, bias=True)
    (3): ReLU()
    (4): Linear(in_features=5, out_features=2, bias=True)
  )
)
parameters: 702 439 134
Pruning Iter: 1, Iter: 1, recon_loss: 1502.9732, ce_loss: 0.5541, acc: 0.8586, mse: 0.3038, val_loss: 0.5369, val_acc: 0.8719, val_auc: 0.5242, test_acc: 0.8625, test_auc: 0.5286
Pruning Iter: 1, Iter: 2, recon_loss: 1481.5480, ce_loss: 0.5412, acc: 0.8586, mse: 0.2995, val_loss: 0.5270, val_acc: 0.8719, val_auc: 0.5504, test_acc: 0.8625, test_auc: 0.5072
…
bias_ih_l0 : torch.Size([3])
bias_hh_l0 : torch.Size([3])
weight_ih_l0_reverse : torch.Size([3, 3])
weight_hh_l0_reverse : torch.Size([3, 2])
bias_ih_l0_reverse : torch.Size([3])
bias_hh_l0_reverse : torch.Size([3])
Shape of normal gru is:  9
We have index size as:  3
Shape of hidden gru unit:  3
Index:  2
=========================================================
=========================================================
Pruning iteration is:  1
Encoder
enc_mtan_rnn(
  (att): multiTimeAttention(
    (linears): ModuleList(
      (0-1): 2 x Linear(in_features=8, out_features=8, bias=True)
      (2): Linear(in_features=82, out_features=4, bias=True)
    )
  )
  (gru_rnn): GRU(4, 2, batch_first=True, bidirectional=True)
  (hiddens_to_z0): Sequential(
    (0): Linear(in_features=4, out_features=1, bias=True)
    (1): ReLU()
    (2): Linear(in_features=1, out_features=6, bias=True)
  )
  (embedder1): mtan_time_embedder(
    (periodic): Linear(in_features=1, out_features=7, bias=True)
    (linear): Linear(in_features=1, out_features=1, bias=True)
  )
  (embedder2): mtan_time_embedder(
    (periodic): Linear(in_features=1, out_features=7, bias=True)
    (linear): Linear(in_features=1, out_features=1, bias=True)
  )
)
Decodder
dec_mtan_rnn(
  (att): multiTimeAttention(
    (linears): ModuleList(
      (0-1): 2 x Linear(in_features=8, out_features=8, bias=True)
      (2): Linear(in_features=4, out_features=6, bias=True)
    )
  )
  (gru_rnn): GRU(3, 1, batch_first=True, bidirectional=True)
  (z0_to_obs): Sequential(
    (0): Linear(in_features=6, out_features=1, bias=True)
    (1): ReLU()
    (2): Linear(in_features=1, out_features=41, bias=True)
  )
  (embedder1): mtan_time_embedder(
    (periodic): Linear(in_features=1, out_features=7, bias=True)
    (linear): Linear(in_features=1, out_features=1, bias=True)
  )
  (embedder2): mtan_time_embedder(
    (periodic): Linear(in_features=1, out_features=7, bias=True)
    (linear): Linear(in_features=1, out_features=1, bias=True)
  )
)
Classifier
create_classifier(
  (gru_rnn): reverseGru(3, 2, batch_first=True)
  (classifier): Sequential(
    (0): Linear(in_features=2, out_features=4, bias=True)
    (1): ReLU()
    (2): Linear(in_features=4, out_features=4, bias=True)
    (3): ReLU()
    (4): Linear(in_features=4, out_features=2, bias=True)
  )
)
parameters: 621 331 84
Pruning Iter: 2, Iter: 1, recon_loss: 40.4924, ce_loss: 0.6961, acc: 0.4672, mse: 0.0087, val_loss: 0.6791, val_acc: 0.8250, val_auc: 0.3132, test_acc: 0.8187, test_auc: 0.2912
Pruning Iter: 2, Iter: 2, recon_loss: 40.4022, ce_loss: 0.6680, acc: 0.8527, mse: 0.0086, val_loss: 0.6539, val_acc: 0.8719, val_auc: 0.3748, test_acc: 0.8625, test_auc: 0.3574
…
bias_ih_l0 : torch.Size([3])
bias_hh_l0 : torch.Size([3])
weight_ih_l0_reverse : torch.Size([3, 4])
weight_hh_l0_reverse : torch.Size([3, 2])
bias_ih_l0_reverse : torch.Size([3])
bias_hh_l0_reverse : torch.Size([3])
Shape of normal gru is:  6
We have index size as:  2
Shape of hidden gru unit:  2
Index:  1
=========================================================
=========================================================
Pruning iteration is:  2
Encoder
enc_mtan_rnn(
  (att): multiTimeAttention(
    (linears): ModuleList(
      (0-1): 2 x Linear(in_features=8, out_features=8, bias=True)
      (2): Linear(in_features=82, out_features=4, bias=True)
    )
  )
  (gru_rnn): GRU(4, 1, batch_first=True, bidirectional=True)
  (hiddens_to_z0): Sequential(
    (0): Linear(in_features=2, out_features=50, bias=True)
    (1): ReLU()
    (2): Linear(in_features=1, out_features=6, bias=True)
  )
  (embedder1): mtan_time_embedder(
    (periodic): Linear(in_features=1, out_features=7, bias=True)
    (linear): Linear(in_features=1, out_features=1, bias=True)
  )
  (embedder2): mtan_time_embedder(
    (periodic): Linear(in_features=1, out_features=7, bias=True)
    (linear): Linear(in_features=1, out_features=1, bias=True)
  )
)
Decodder
dec_mtan_rnn(
  (att): multiTimeAttention(
    (linears): ModuleList(
      (0-1): 2 x Linear(in_features=8, out_features=8, bias=True)
      (2): Linear(in_features=2, out_features=6, bias=True)
    )
  )
  (gru_rnn): GRU(3, 1, batch_first=True, bidirectional=True)
  (z0_to_obs): Sequential(
    (0): Linear(in_features=6, out_features=1, bias=True)
    (1): ReLU()
    (2): Linear(in_features=1, out_features=41, bias=True)
  )
  (embedder1): mtan_time_embedder(
    (periodic): Linear(in_features=1, out_features=7, bias=True)
    (linear): Linear(in_features=1, out_features=1, bias=True)
  )
  (embedder2): mtan_time_embedder(
    (periodic): Linear(in_features=1, out_features=7, bias=True)
    (linear): Linear(in_features=1, out_features=1, bias=True)
  )
)
Classifier
create_classifier(
  (gru_rnn): reverseGru(3, 1, batch_first=True)
  (classifier): Sequential(
    (0): Linear(in_features=1, out_features=3, bias=True)
    (1): ReLU()
    (2): Linear(in_features=3, out_features=3, bias=True)
    (3): ReLU()
    (4): Linear(in_features=3, out_features=2, bias=True)
  )
)
parameters: 565 319 44
Pruning Iter: 3, Iter: 1, recon_loss: 38.8878, ce_loss: 0.4478, acc: 0.8586, mse: 0.0084, val_loss: 0.4236, val_acc: 0.8719, val_auc: 0.5463, test_acc: 0.8625, test_auc: 0.5355
Pruning Iter: 3, Iter: 2, recon_loss: 38.8841, ce_loss: 0.4342, acc: 0.8586, mse: 0.0084, val_loss: 0.4099, val_acc: 0.8719, val_auc: 0.5768, test_acc: 0.8625, test_auc: 0.5343
…
Pruning Iter: 3, Iter: 299, recon_loss: 39.3137, ce_loss: 0.3074, acc: 0.8668, mse: 0.0084, val_loss: 0.3002, val_acc: 0.8797, val_auc: 0.8341, test_acc: 0.8800, test_auc: 0.8240
Pruning Iter: 3, Iter: 300, recon_loss: 39.3141, ce_loss: 0.3045, acc: 0.8656, mse: 0.0084, val_loss: 0.3003, val_acc: 0.8750, val_auc: 0.8315, test_acc: 0.8788, test_auc: 0.8304
Pruning iteration:  3
Best auc:  0.8354281949934123
=========================================================
=========================================================
Pruning iteration is:  3
Encoder
enc_mtan_rnn(
  (att): multiTimeAttention(
    (linears): ModuleList(
      (0-1): 2 x Linear(in_features=8, out_features=8, bias=True)
      (2): Linear(in_features=82, out_features=4, bias=True)
    )
  )
  (gru_rnn): GRU(4, 1, batch_first=True, bidirectional=True)
  (hiddens_to_z0): Sequential(
    (0): Linear(in_features=2, out_features=50, bias=True)
    (1): ReLU()
    (2): Linear(in_features=1, out_features=6, bias=True)
  )
  (embedder1): mtan_time_embedder(
    (periodic): Linear(in_features=1, out_features=7, bias=True)
    (linear): Linear(in_features=1, out_features=1, bias=True)
  )
  (embedder2): mtan_time_embedder(
    (periodic): Linear(in_features=1, out_features=7, bias=True)
    (linear): Linear(in_features=1, out_features=1, bias=True)
  )
)
Decodder
dec_mtan_rnn(
  (att): multiTimeAttention(
    (linears): ModuleList(
      (0-1): 2 x Linear(in_features=8, out_features=8, bias=True)
      (2): Linear(in_features=2, out_features=6, bias=True)
    )
  )
  (gru_rnn): GRU(3, 1, batch_first=True, bidirectional=True)
  (z0_to_obs): Sequential(
    (0): Linear(in_features=6, out_features=1, bias=True)
    (1): ReLU()
    (2): Linear(in_features=1, out_features=41, bias=True)
  )
  (embedder1): mtan_time_embedder(
    (periodic): Linear(in_features=1, out_features=7, bias=True)
    (linear): Linear(in_features=1, out_features=1, bias=True)
  )
  (embedder2): mtan_time_embedder(
    (periodic): Linear(in_features=1, out_features=7, bias=True)
    (linear): Linear(in_features=1, out_features=1, bias=True)
  )
)
Classifier
create_classifier(
  (gru_rnn): reverseGru(3, 1, batch_first=True)
  (classifier): Sequential(
    (0): Linear(in_features=1, out_features=2, bias=True)
    (1): ReLU()
    (2): Linear(in_features=2, out_features=2, bias=True)
    (3): ReLU()
    (4): Linear(in_features=2, out_features=2, bias=True)
  )
)
parameters: 565 319 34
Pruning Iter: 4, Iter: 1, recon_loss: 38.8878, ce_loss: 0.6630, acc: 0.6199, mse: 0.0084, val_loss: 0.5582, val_acc: 0.7797, val_auc: 0.1686, test_acc: 0.7788, test_auc: 0.1896
Pruning Iter: 4, Iter: 2, recon_loss: 38.8841, ce_loss: 0.5275, acc: 0.8133, mse: 0.0084, val_loss: 0.4614, val_acc: 0.8469, val_auc: 0.1778, test_acc: 0.8425, test_auc: 0.1959
…
Pruning Iter: 4, Iter: 299, recon_loss: 39.1026, ce_loss: 0.3097, acc: 0.8676, mse: 0.0084, val_loss: 0.3097, val_acc: 0.8750, val_auc: 0.8230, test_acc: 0.8712, test_auc: 0.8298
Pruning Iter: 4, Iter: 300, recon_loss: 39.1029, ce_loss: 0.3081, acc: 0.8613, mse: 0.0084, val_loss: 0.3115, val_acc: 0.8734, val_auc: 0.8065, test_acc: 0.8688, test_auc: 0.8254
Pruning iteration:  4
Best auc:  0.8387088274044796
=========================================================
=========================================================
Pruning iteration is:  4
Encoder
enc_mtan_rnn(
  (att): multiTimeAttention(
    (linears): ModuleList(
      (0-1): 2 x Linear(in_features=8, out_features=8, bias=True)
      (2): Linear(in_features=82, out_features=4, bias=True)
    )
  )
  (gru_rnn): GRU(4, 1, batch_first=True, bidirectional=True)
  (hiddens_to_z0): Sequential(
    (0): Linear(in_features=2, out_features=50, bias=True)
    (1): ReLU()
    (2): Linear(in_features=1, out_features=6, bias=True)
  )
  (embedder1): mtan_time_embedder(
    (periodic): Linear(in_features=1, out_features=7, bias=True)
    (linear): Linear(in_features=1, out_features=1, bias=True)
  )
  (embedder2): mtan_time_embedder(
    (periodic): Linear(in_features=1, out_features=7, bias=True)
    (linear): Linear(in_features=1, out_features=1, bias=True)
  )
)
Decodder
dec_mtan_rnn(
  (att): multiTimeAttention(
    (linears): ModuleList(
      (0-1): 2 x Linear(in_features=8, out_features=8, bias=True)
      (2): Linear(in_features=2, out_features=6, bias=True)
    )
  )
  (gru_rnn): GRU(3, 1, batch_first=True, bidirectional=True)
  (z0_to_obs): Sequential(
    (0): Linear(in_features=6, out_features=1, bias=True)
    (1): ReLU()
    (2): Linear(in_features=1, out_features=41, bias=True)
  )
  (embedder1): mtan_time_embedder(
    (periodic): Linear(in_features=1, out_features=7, bias=True)
    (linear): Linear(in_features=1, out_features=1, bias=True)
  )
  (embedder2): mtan_time_embedder(
    (periodic): Linear(in_features=1, out_features=7, bias=True)
    (linear): Linear(in_features=1, out_features=1, bias=True)
  )
)
Classifier
create_classifier(
  (gru_rnn): reverseGru(3, 1, batch_first=True)
  (classifier): Sequential(
    (0): Linear(in_features=1, out_features=1, bias=True)
    (1): ReLU()
    (2): Linear(in_features=1, out_features=1, bias=True)
    (3): ReLU()
    (4): Linear(in_features=1, out_features=2, bias=True)
  )
)
parameters: 565 319 26
Pruning Iter: 5, Iter: 1, recon_loss: 38.8878, ce_loss: 0.5472, acc: 0.8586, mse: 0.0084, val_loss: 0.4720, val_acc: 0.8719, val_auc: 0.2757, test_acc: 0.8625, test_auc: 0.2918
Pruning Iter: 5, Iter: 2, recon_loss: 38.8841, ce_loss: 0.4730, acc: 0.8586, mse: 0.0084, val_loss: 0.4285, val_acc: 0.8719, val_auc: 0.3595, test_acc: 0.8625, test_auc: 0.3875
…
Pruning Iter: 5, Iter: 300, recon_loss: 38.9230, ce_loss: 0.4075, acc: 0.8586, mse: 0.0084, val_loss: 0.3860, val_acc: 0.8719, val_auc: 0.4966, test_acc: 0.8625, test_auc: 0.5005
Pruning iteration:  5
Best auc:  0.5004808959156786
=========================================================
/usr/lib/python3/dist-packages/requests/__init__.py:89: RequestsDependencyWarning: urllib3 (1.26.12) or chardet (3.0.4) doesn't match a supported version!
  warnings.warn("urllib3 ({}) or chardet ({}) doesn't match a supported "
=========================================================
Pruning iteration is:  5
Encoder
enc_mtan_rnn(
  (att): multiTimeAttention(
    (linears): ModuleList(
      (0-1): 2 x Linear(in_features=8, out_features=8, bias=True)
      (2): Linear(in_features=82, out_features=4, bias=True)
    )
  )
  (gru_rnn): GRU(4, 1, batch_first=True, bidirectional=True)
  (hiddens_to_z0): Sequential(
    (0): Linear(in_features=2, out_features=50, bias=True)
    (1): ReLU()
    (2): Linear(in_features=1, out_features=6, bias=True)
  )
  (embedder1): mtan_time_embedder(
    (periodic): Linear(in_features=1, out_features=7, bias=True)
    (linear): Linear(in_features=1, out_features=1, bias=True)
  )
  (embedder2): mtan_time_embedder(
    (periodic): Linear(in_features=1, out_features=7, bias=True)
    (linear): Linear(in_features=1, out_features=1, bias=True)
  )
)
Decodder
dec_mtan_rnn(
  (att): multiTimeAttention(
    (linears): ModuleList(
      (0-1): 2 x Linear(in_features=8, out_features=8, bias=True)
      (2): Linear(in_features=2, out_features=6, bias=True)
    )
  )
  (gru_rnn): GRU(3, 1, batch_first=True, bidirectional=True)
  (z0_to_obs): Sequential(
    (0): Linear(in_features=6, out_features=1, bias=True)
    (1): ReLU()
    (2): Linear(in_features=1, out_features=41, bias=True)
  )
  (embedder1): mtan_time_embedder(
    (periodic): Linear(in_features=1, out_features=7, bias=True)
    (linear): Linear(in_features=1, out_features=1, bias=True)
  )
  (embedder2): mtan_time_embedder(
    (periodic): Linear(in_features=1, out_features=7, bias=True)
    (linear): Linear(in_features=1, out_features=1, bias=True)
  )
)
Classifier
create_classifier(
  (gru_rnn): reverseGru(3, 1, batch_first=True)
  (classifier): Sequential(
    (0): Linear(in_features=1, out_features=0, bias=True)
    (1): ReLU()
    (2): Linear(in_features=0, out_features=0, bias=True)
    (3): ReLU()
    (4): Linear(in_features=0, out_features=2, bias=True)
  )
)
parameters: 565 319 20
Traceback (most recent call last):
  File "pruningBaseModelInit.py", line 392, in <module>
    rec, dec, classifier = prune(rec, dec, classifier, train_loader, optimizer, criterion)
  File "pruningBaseModelInit.py", line 269, in prune
    new_rec, new_dec, new_classifier = train_step(rec, dec, classifier, train_loader, optimizer, criterion)
…
